growingspheres/models/saved/old/HELOC_retrained_GS.pt (torch, 4837 bytes, 6 tensors)

weight f4 [10, 22]
0.056883868 -0.16596036 -0.040038545 -0.10369026 -0.12776752 0.015766408 -0.08177508 -0.1701744
-0.14858896 -0.014231768 -0.20564021 0.08654923 -0.14778052 -0.058686767 0.12320995 0.027850693
-0.05017191 -0.20805945 -0.16928211 0.07835481 -0.060475715 0.07802517 -0.08749128 0.5093761
-0.45747533 -0.028471362 0.16084889 -0.29724288 0.20095195 -0.010120498 -0.028529542 0.19219421
0.13772404 0.3772856 0.3800657 -0.059256423 0.7002009 0.67123693 0.91341263 0.28641406
0.6180373 0.23450787 0.058990877 0.19534823 0.14194585 -0.4186726 0.64918107 0.09521109
-0.33324155 0.4428158 0.28224927 0.069053985 0.41820282 0.03200386 0.030699529 -0.072395846
0.16017197 0.046644475 -0.9474433 -0.8044052 -0.49586114 0.11132102 -0.39190143 0.29184258
0.09373031 0.006910746 -0.24584304 -0.09716732 -0.294024 -0.35346654 0.3527801 0.2120094
-0.32743844 -0.08277015 -0.032038257 -0.06352171 0.021257414 -0.28379652 -0.32746965 0.001464757
-0.019993318 0.18014273 0.18644878 -0.19686003 -0.06267863 0.0029556896 -0.30566415 -0.22687203
-0.011048828 -0.4794249 -0.8067513 -0.587714 -0.01800388 -0.27003455 -0.021987222 -0.20307522
-0.26842424 -0.06654727 -0.34265432 0.11574335 0.2043564 -0.12816952 0.88020235 0.57708573
0.76182055 0.07767985 0.25876462 0.15931267 0.1888882 0.1741555 0.02543808 -0.0969666
0.6695223 0.3658895 -0.8265289 0.14901714 0.35171273 0.17582059 0.41087666 0.34573466
0.24518386 0.099092714 -0.1747704 0.29633385 -0.9572048 -0.7571005 -0.8537544 0.06380474
-0.24594796 0.15015915 0.07703266 0.036559407 -0.084734716 0.11606123 -0.048124135 -0.20210281
-0.07890193 0.048765264 -0.1792098 -0.09568018 -0.1374391 0.08679103 -0.17989483 0.06548285
-0.18517514 0.13788927 0.10907387 -0.18389265 -0.14578617 0.16732427 0.20707035 -0.038313087
-0.21169096 0.028395474 -0.24022573 -0.14299813 -0.07044123 -0.011000044 0.24123512 -0.0035647645
-0.0032508392 -0.21096139 -0.35761395 -6.369539e-05 -0.37396026 -0.38565427 -0.295383 -0.06699292
0.022141295 0.007363977 0.19176054 -0.12795949 -0.2145657 -0.2932965 -0.05359137 -0.14644517
-0.057981506 0.2621888 -0.42627966 -0.32741588 0.47772887 -0.029586539 0.03291577 -0.11916137
-0.39727885 -0.042810746 0.12342267 0.22446777 0.22932018 -0.004017004 1.0093771 0.78846127
0.8313181 0.03794262 0.3478706 -0.14753388 0.032978576 0.18450904 -0.1988424 -0.1502242
-0.0055753426 0.048008654 -0.5988355 -0.67774045 -0.017966824 -0.82360554 0.14297651 0.1488404
-0.11747173 0.15909368 0.10737404 0.019486446 0.08384753 0.26866066 0.025496306 0.19926794
0.0258535 0.08326977 0.051528305 0.29079846
00000000: 0fff 683d 83f1 29be 75ff 23bd 8f5b d4bd
00000010: 7dd5 02be 8e28 813c b179 a7bd 3342 2ebe
00000020: b427 18be 5d2c 69bc 5993 52be b940 b13d
00000030: c753 17be 8961 70bd 8055 fc3d 2327 e43c
00000040: 1081 4dbd 890d 55be 4a58 2dbe 7d78 a03d
00000050: 62b5 77bd a9cb 9f3d a12e b3bd 7966 023f
00000060: 353a eabe c63c e9bc 92b5 243e 3830 98be
00000070: 59c6 4d3e 72d0 25bc c9b6 e9bc 8fce 443e
00000080: 8807 0d3e 942b c13e f997 c23e ddb6 72bd
00000090: 5e40 333f 2fd6 2b3f 69d5 693f dda4 923e
000000a0: b137 1e3f d522 703e 6ba0 713d 5e09 483e
000000b0: 415a 113e 415c d6be bb30 263f 08fe c23d
000000c0: a39e aabe c1b8 e23e fa82 903e 2d6c 8d3d
000000d0: ae1e d63e 7b16 033d 947d fb3c 4644 94bd
000000e0: 1f04 243e 470e 3f3d a58b 72bf 80ed 4dbf
000000f0: 83e1 fdbe 46fc e33d 4ea7 c8be 646c 953e
00000100: adf5 bf3d 8a73 e23b 47be 7bbe a9ff c6bd
00000110: 508a 96be 91f9 b4be 989f b43e fe18 593e
00000120: 03a6 a7be 6583 a9bd 8c3a 03bd ac17 82bd
00000130: 0724 ae3c c74d 91be 1aaa a7be 17fd bf3a
00000140: 07c9 a3bc 5677 383e 6eec 3e3e ad95 49be
00000150: a75d 80bd 3eb4 413b 0380 9cbe 2451 68be
00000160: 2506 35bc 2e77 f5be 4187 4ebf 6d74 16bf
00000170: df7c 93bc f841 8abe 8c1e b4bc f3f2 4fbe
00000180: e76e 89be ef49 88bd 6370 afbe d90a ed3d
00000190: ce42 513e df3e 03be f154 613f e4bb 133f
000001a0: ac06 433f 9d16 9f3d cc7c 843e dc22 233e
000001b0: e96b 413e d255 323e 8563 d03c 6d96 c6bd
000001c0: d065 2b3f de55 bb3e 6697 53bf f397 183e
000001d0: b113 b43e 500a 343e 6d5e d23e 2204 b13e
000001e0: 7a11 7b3e 1ff1 ca3d 03f7 32be 12b9 973e
000001f0: 600b 75bf 57d1 41bf a68f 5abf 0fac 823d
00000200: c8d9 7bbe 52c3 193e 4dc3 9d3d 51bf 153d
00000210: 6589 adbd 83b1 ed3d d01d 45bd 0af4 4ebe
00000220: 5697 a1bd 16be 473d c682 37be f8f3 c3bd
00000230: d6bc 0cbe 7fbf b13d 5a36 38be df1b 863d
00000240: 8d9e 3dbe d832 0d3e 1f62 df3d 5b4e 3cbe
00000250: f848 15be 0e57 2b3e 400a 543e 2fee 1cbd
00000260: 84c5 58be a09d e83c bcfd 75be 1a6e 12be
00000270: 7e43 90bd 8739 34bc 5706 773e d39e 69bb
00000280: 080c 55bb 4306 58be 2d19 b7be 3494 85b8
00000290: b877 bfbe 7a74 c5be 713c 97be 9633 89bd
000002a0: a961 b53c 844d f13b e05c 443e d007 03be
000002b0: 1cb7 5bbe f52a 96be a082 5bbd b9f5 15be
000002c0: 047e 6dbd 9c3d 863e 5441 dabe 0ea3 a7be
000002d0: e198 f43e 785f f2bc b0d2 063d e00a f4bd
000002e0: 2268 cbbe 525a 2fbd 06c5 fc3d e1da 653e
000002f0: e9d2 6a3e 12a1 83bb 4533 813f 99d8 493f
00000300: 43d1 543f b969 1b3d 181c b23e 1f13 17be
00000310: 8b14 073d f0ef 3c3e 589d 4bbe 5fd4 19be
00000320: 5db1 b6bb b9a4 443d 494d 19bf 6680 2dbf
00000330: 292f 93bc d0d7 52bf 6f68 123e 9e69 183e
00000340: 0595 f0bd 74e9 223e ece6 db3d 0aa2 9f3c
00000350: 41b8 ab3d e48d 893e a1dd d03c e50c 4c3e
00000360: b8ca d33c 5789 aa3d 580f 533d 89e3 943e

bias f4 [10]
-0.058109887 0.37845233 -0.13427158 -0.042683367 0.25149193 -0.18413097 -0.100204624 -0.19381848
0.45523986 -0.2078061
00000000: a204 6ebd 81c4 c13e 7d7e 09be c1d4 2ebd
00000010: 8dc3 803e d48c 3cbe 1538 cdbd 5a78 46be
00000020: 3315 e93e 1fcb 54be

weight f4 [10, 10]
-0.13425124 -0.084289454 -0.33406994 -0.1321132 -0.37355334 -0.15329862 -0.09884131 0.0186614
0.097207144 -0.3211468 -0.029535638 -0.48109493 0.24539126 0.66898054 0.38904616 -0.12901655
0.94769245 -0.18482795 0.3535065 -0.3088929 0.21252039 -0.7144312 0.075168245 0.19384825
-0.32697248 -0.0071859583 0.5256842 -0.077886745 -0.59352267 0.24860269 -0.27806926 0.42414683
-0.20398656 -0.59199995 0.4432329 -0.49247822 -0.6414047 0.054008793 0.54510164 0.120136425
0.2275867 -0.55307347 -0.12830769 0.31478712 -0.13706878 -0.47344312 -0.23619682 -0.04641833
0.022740327 -0.58354574 -0.4010389 -0.4785824 -0.3516117 -0.5097201 -0.31173298 0.0044765077
-0.55180186 0.07101049 -0.7130126 0.09892197 -0.08752108 -0.43752706 0.10899078 0.055249646
0.013538974 0.011642802 0.24611613 -0.2057915 -0.49333817 0.48933104 -0.294388 -0.4267097
-0.2581989 -0.24113685 -0.13739005 -0.018109217 -0.112797454 -0.4190486 0.12482452 0.05040103
-0.0074788313 0.35711998 -0.2808404 0.5275956 0.531521 -0.48284656 -0.03932653 -0.09710609
0.3080924 -0.18324298 -0.21330899 -0.11867292 0.4318131 0.018350387 -0.1589101 0.67593485
0.12058631 0.094049625 -0.22975177 0.03663278
00000000: 2879 09be f39f acbd 370b abbe af48 07be
00000010: 6242 bfbe 50fa 1cbe 506d cabd cbdf 983c
00000020: 8a14 c73d 5a6d a4be b9f4 f1bc 1352 f6be
00000030: d947 7b3e 4f42 2b3f 0f31 c73e ea1c 04be
00000040: f99b 723f 8a43 3dbe cefe b43e 3627 9ebe
00000050: f29e 593e f7e4 36bf cff1 993d 2880 463e
00000060: f068 a7be 3078 ebbb 3d93 063f 1683 9fbd
00000070: 1af1 17bf b491 7e3e 185f 8ebe c629 d93e
00000080: dae1 50be 4f8d 17bf 6cef e23e 1b26 fcbe
00000090: 1933 24bf 5338 5d3d c88b 0b3f 160a f63d
000000a0: 7d0c 693e 3996 0dbf 1763 03be c72b a13e
000000b0: c25b 0cbe 2367 f2be 94dd 71be 2621 3ebd
000000c0: ec49 ba3c 4163 15bf f854 cdbe c108 f5be
000000d0: 7306 b4be 047d 02bf 779b 9fbe abaf 923b
000000e0: e342 0dbf f36d 913d fe87 36bf 9a97 ca3d
000000f0: 413e b3bd 8c03 e0be 8f36 df3d 744d 623d
00000100: 93d2 5d3c 73c1 3e3c de05 7c3e 02bb 52be
00000110: d296 fcbe 9989 fa3e 06ba 96be b279 dabe
00000120: a532 84be 94ec 76be faaf 0cbe c859 94bc
00000130: 5a02 e7bd 8a8d d6be ffa3 ff3d 4f71 4e3d
00000140: fc10 f5bb 6ed8 b63e 50ca 8fbe 8110 073f
00000150: c311 083f aa37 f7be db14 21bd 8fdf c6bd
00000160: 49be 9d3e 0ca4 3bbe ac6d 5abe ca0a f3bd
00000170: 9b16 dd3e 8d53 963c 54b9 22be 110a 2d3f
00000180: f5f5 f63d 179d c03d 0c44 6bbe 410c 163d

bias f4 [10]
-0.37753937 0.53871506 0.2610806 -0.015062597 0.1002602 0.13237602 0.31319347 -0.28433454
0.34425816 0.2973013
00000000: d74c c1be 3be9 093f 5bac 853e 1cc9 76bc
00000010: 3855 cd3d 948d 073e e55a a03e 4c94 91be
00000020: 9b42 b03e e037 983e

weight f4 [2, 10]
0.21512176 -0.36764202 -0.28024304 0.4461469 -0.1659198 0.03529601 -0.17764886 -0.1854193
0.41245204 -0.5164554 0.042220056 0.13374096 0.4973869 -0.047375046 -0.09265476 0.11587317
0.40592554 -0.1590052 -0.42811882 0.023698067
00000000: e148 5c3e 933b bcbe 047c 8fbe 5e6d e43e
00000010: e1e6 29be 8d92 103d 95e9 35be 8fde 3dbe
00000020: ea2c d33e 6c36 04bf f0ee 2c3d 64f3 083e
00000030: 7fa9 fe3e 560c 42bd c7c1 bdbd ea4e ed3d
00000040: 79d5 cf3e 42d2 22be 6432 dbbe 7322 c23c

bias f4 [2]
0.14628436 -0.28481272
00000000: 91cb 153e f9d2 91be
