growingspheres/models/saved/old/HELOC_retrained_GC.pt (torch, 4837 bytes, 6 tensors)

weight f4 [10, 22]
000000 fa bb d5 3e 13 66 8c 3c 3a 5b fa 3e 49 7c a4 3e
       0.41744977 0.017138517 0.48897725 0.32126072
000010 2d f5 01 bf 73 84 83 be a2 3d 53 3e 55 7e a5 3d
       -0.50764734 -0.25686988 0.2062898 0.080807365
000020 45 70 b1 3e e7 f6 04 3f be 59 79 3e f5 de bb be
       0.34655967 0.51939243 0.2435064 -0.3669354
000030 7c 72 f8 bd 59 42 dd 3e 6c 72 91 bf d6 d8 7c bf
       -0.12131211 0.43214682 -1.1363044 -0.98768365
000040 22 b2 8a bf ed d3 ce 3d 7a d1 d5 be 07 4b 8d 3e
       -1.0835612 0.100990154 -0.4176138 0.27596304
000050 3e 61 27 be e6 3a 01 bd eb f6 fd bc e9 89 29 be
       -0.16345689 -0.03155031 -0.031001529 -0.16556515
000060 56 d3 0c 3d 7a b3 39 be 7a 1a e1 3d 2d fd 9d bd
       0.034381233 -0.18134871 0.10991378 -0.07714305
000070 1e 25 ee bd 09 46 9c bd 89 0c 17 bd 3e 0a 1f be
       -0.11628173 -0.07630546 -0.03687719 -0.15531251
000080 fe 2c 3e be 28 c3 0b 3d be 17 17 3e 76 9e 01 be
       -0.1857185 0.034121662 0.1475515 -0.12658104
000090 38 74 09 3e 5a 35 73 3d 15 fa 4f 3d 44 2b bf 3c
       0.1342324 0.059377052 0.050775606 0.02333606
0000a0 50 91 e6 3c c3 70 fe 3d 96 b1 fa bd a0 70 31 be
       0.028145462 0.12423851 -0.12240903 -0.1732812
0000b0 85 e0 ba be 0c df ac be 78 12 7e be 0b 10 ad be
       -0.3649942 -0.3376392 -0.24811733 -0.33801302
0000c0 e0 51 b7 bd b2 3b 9c bd e8 7c 94 be 89 e8 7f be
       -0.08951163 -0.076285735 -0.29001546 -0.24991049
0000d0 92 08 51 3c 7c 18 27 bd c1 ce 1e be 87 17 b1 be
       0.012758391 -0.040794834 -0.15508558 -0.34588262
0000e0 3e 9a 6a be 8f 08 3d bd 36 1d 67 be 83 84 04 be
       -0.22910401 -0.04615074 -0.22569737 -0.12941174
0000f0 36 0a 69 be 8a 64 dd bd ce ff 02 be 1b 37 ae be
       -0.22757801 -0.10810192 -0.12792894 -0.34026417
000100 2a bb b2 be 3c 7c ba be 5b ee e6 bb e3 5a a8 be
       -0.3490842 -0.36422908 -0.007047457 -0.3288184
000110 54 2b 07 bf 8f 93 9d bd 1e 71 c6 bc 10 be c8 3d
       -0.5280049 -0.0769416 -0.02422386 0.098018765
000120 8f cb 45 be 61 45 32 be 40 d5 b3 be 0f ae 04 3e
       -0.19315933 -0.17409278 -0.35123634 0.12957023
000130 d9 bc 41 bd 95 db b2 3d 89 66 9d 3b b9 de 45 be
       -0.04729924 0.08733288 0.004803483 -0.19323243
000140 d3 10 71 3f 1f 8d 8d 3f ac fa 38 3f b3 6b d5 bc
       0.94166297 1.1058692 0.72257495 -0.026052332
000150 79 15 c4 3e f4 af 2b bc d9 67 82 3e 2e 5b 3f 3e
       0.38297632 -0.010478962 0.25469854 0.18687126
000160 6e a9 40 3e 8b e0 2c be 2d e7 37 3f bf e7 ff 3e
       0.18814632 -0.16882531 0.7183712 0.49981496
000170 83 9d f4 bd 9e f1 45 bd d9 af 3a 3e 0f 01 3d 3e
       -0.119441055 -0.048326127 0.18231143 0.18457435
000180 7b dd 0a 3f 40 a6 84 3e 9e ed c7 3d f4 a4 c8 bd
       0.542442 0.2590809 0.09762119 -0.09797087
000190 e2 18 3c be 76 d7 a3 3d 0c 5a 90 bf 7c 92 6f bf
       -0.18368867 0.0800008 -1.127748 -0.9358289
0001a0 04 29 82 bf d0 7d be 3d 13 a6 ba be 14 cd 18 3e
       -1.0168767 0.093013406 -0.3645483 0.14921981
0001b0 87 6f a7 bd fb 27 a3 be 56 7d 43 be a9 0a 3b be
       -0.08175569 -0.3186644 -0.1909078 -0.18265785
0001c0 2c ad a6 be db a2 96 be 0a 64 ca bc a1 aa ac bb
       -0.32553995 -0.29421124 -0.024705905 -0.005269364
0001d0 0d 4b b2 bd c5 27 ef bd 97 88 3c bd fd 59 69 bb
       -0.08705721 -0.11677507 -0.0460287 -0.0035606616
0001e0 57 52 02 3d f0 1e 12 bd bd b0 ba be 9f 66 55 be
       0.031816807 -0.035674036 -0.36462966 -0.20839928
0001f0 28 72 c6 3c 4b 19 93 3d 8f 64 bc 3e d0 0a 2c be
       0.024224356 0.071825586 0.3679547 -0.16801
000200 4a 15 bc be 53 22 3e be d9 27 c6 be dd 86 b7 bd
       -0.36734992 -0.18567781 -0.38702276 -0.0896127
000210 7d 84 8b be 59 59 8a 3b 17 72 b8 be 87 8f c5 be
       -0.27249518 0.004222077 -0.36024544 -0.38586065
000220 13 a4 26 bd ef d9 d2 bd d4 52 24 bd a1 6d b2 3d
       -0.040683817 -0.10295474 -0.040118054 0.08712316
000230 49 88 c5 be b4 43 cd be 3f 22 9e bd d8 f9 2c bd
       -0.3858054 -0.40090716 -0.07721376 -0.042230457
000240 22 c1 8e bd 22 86 8a be 33 0e 1e be ed 4b 79 be
       -0.06970431 -0.2705546 -0.15435104 -0.2434537
000250 33 61 6c 3c 03 d7 b5 be d6 84 f1 bd ab be 93 be
       0.014427471 -0.35515603 -0.117929146 -0.28856406
000260 bd b6 26 be dc a8 9f bd c6 28 4b 3d 21 f1 c3 3e
       -0.16280647 -0.07795879 0.04959943 0.38269904
000270 0e 6c 25 bf 8b 54 7a be 36 6d 8c 3e 11 2b 2c be
       -0.64618003 -0.24446313 0.2742707 -0.16813304
000280 8a 69 06 be 76 45 9a be 7f aa 53 bd f0 28 42 be
       -0.13126197 -0.3013112 -0.05167627 -0.18960929
000290 03 ca 03 bd 27 1c 39 3e 71 db 40 3e 7c 12 96 bb
       -0.032175075 0.18077146 0.1883371 -0.00457984
0002a0 ad d7 84 3f df 33 5f 3f b6 1f 4c 3f f7 84 67 3e
       1.0378319 0.87188524 0.7973589 0.22609316
0002b0 74 04 a6 3e 65 ea a4 3d 29 7f e6 3d c2 4b 78 3e
       0.32425272 0.0805252 0.112547226 0.2424765
0002c0 7f 98 ad bd a7 5d 36 bc ab ef ba be 77 4e 85 be
       -0.08476352 -0.011130727 -0.36510977 -0.26036426
0002d0 68 ca ee bd e9 7d 95 be cb 03 88 be df 1e 57 be
       -0.116597 -0.29197624 -0.26565394 -0.2100787
0002e0 32 f6 b6 be 35 8e 0c bc 6a da 05 bd a3 2e e2 bc
       -0.35734707 -0.008578827 -0.032679 -0.027610129
0002f0 25 7d d7 bd ac 0a 8f be 92 9e f5 bd e2 ff ce bc
       -0.10521916 -0.2793783 -0.119931355 -0.025268499
000300 ab 8d 02 3d df c9 70 be 9a a7 d5 3b c4 67 56 be
       0.031873386 -0.23514508 0.006520224 -0.20938021
000310 19 7f 95 be 15 11 f6 bd be 5b 02 be 1b 3f bc 3d
       -0.2919853 -0.12014977 -0.1273031 0.09191724
000320 a8 84 48 bc c0 4a 2c be 9c 00 28 3e 2a 41 33 bd
       -0.012238659 -0.1682539 0.16406482 -0.043763317
000330 2b 6d dc 3d f9 30 0f be 60 ea 62 3d 45 d7 f7 bd
       0.1076301 -0.13983525 0.0553993 -0.12101606
000340 76 ef 17 3d 1f 93 1c 3c df a3 2d be d7 aa 39 be
       0.037093602 0.009556561 -0.16957043 -0.18131576
000350 45 19 59 bd 06 20 23 be 15 d4 31 be d8 28 41 3d
       -0.053002615 -0.15930185 -0.17366059 0.047158092
000360 5b 4d 2b be 01 7e 32 bd 22 f7 36 3e d4 ee 1a be
       -0.16728728 -0.043577198 0.17867711 -0.15130168

bias f4 [10]
000000 46 9c 33 3d 09 3a 69 bd c1 7d 41 bd 40 af 08 3d
       0.043850206 -0.056940112 -0.04723907 0.033370256
000010 e5 38 0d 3d 5e a4 bc be c1 7a d2 bd 86 9d c9 3d
       0.034478087 -0.36844152 -0.1027732 0.09844498
000020 f4 9f bf be 3c f5 0d be
       -0.37426722 -0.1386308

weight f4 [10, 10]
000000 63 11 bf 3e 98 57 8b 3e 7d ed 69 3d 85 d2 d7 3c
       0.37317953 0.27215266 0.057111252 0.0263455
000010 21 b0 f3 3e a6 e2 83 3d 44 a7 25 bf 2e 00 74 3e
       0.47595313 0.06439714 -0.6470835 0.23828194
000020 c5 a5 04 3f ba 0b e3 3e c7 49 e8 3e 45 a0 e7 be
       0.51815444 0.44344884 0.45368788 -0.45239463
000030 b7 90 cd 3e fc 46 dc be 88 18 2f 3f 2d 51 19 3f
       0.4014947 -0.43022907 0.68396807 0.5988949
000040 4b 9f 36 be 49 75 59 be da 92 cf 3e 77 1c 28 be
       -0.17834203 -0.21236147 0.40541726 -0.16417108
000050 a5 e6 ca 3e f5 a4 7a be 21 c5 6c be c4 a1 fb 3d
       0.39629093 -0.24476989 -0.23122074 0.12286714
000060 4b 98 2d be dd 29 37 3e fd 33 17 3e d9 59 11 3f
       -0.16952626 0.17887063 0.14765926 0.5677772
000070 93 ec b9 3e 4f eb 8d 3e 0f 4b 95 be 55 68 b2 be
       0.36313304 0.2771859 -0.29158828 -0.34845224
000080 1f 9a fe 3d 86 ad 20 be 25 21 e0 be ca 38 7b be
       0.1243174 -0.15691194 -0.43775287 -0.24533382
000090 ba 08 ed 3d 2d d7 ca bd 01 d9 d0 bc 3b 2b 1c be
       0.1157393 -0.09904323 -0.0254941 -0.15250866
0000a0 a7 e7 bc 3e e8 a3 c8 be 0b 4d a0 bb d1 3f d5 3e
       0.36895487 -0.3918755 -0.0048919967 0.4165025
0000b0 25 1f db 3d c1 c4 eb 3d 14 80 3b 3e ae 90 ca 3d
       0.106993 0.11512137 0.18310577 0.09890877
0000c0 a2 cb be 3e 14 9d da 3e 2e ff b3 3e 41 89 a4 be
       0.37264735 0.42697966 0.35155624 -0.32135966
0000d0 04 20 b4 bd 05 94 ce 3e e5 35 1c be 64 4c ba bc
       -0.08795169 0.40347305 -0.15254934 -0.022741504
0000e0 f5 cb ff bd 5b 5e 75 3e ac 24 f1 3e fa ec 6f 3e
       -0.124900736 0.23961775 0.4709829 0.23430243
0000f0 62 bd bd be 1f 61 0e be f1 26 62 3e 3c 3d d7 be
       -0.3705855 -0.13904236 0.22085167 -0.42038906
000100 ab f1 fd be fc 75 37 3e cb e0 a3 bd 09 2c 93 bd
       -0.4959844 0.17916101 -0.0800186 -0.071861334
000110 d7 33 9c 3d f2 5e 81 be f7 de 61 3e da 75 c1 bd
       0.07627075 -0.2526775 0.2205771 -0.094463065
000120 91 fb 1e 3e 65 eb 24 3e a6 66 a0 3d 36 84 2e 3e
       0.15525652 0.16105421 0.07832079 0.17042622
000130 72 e9 8c 3c aa 5f c3 be c3 2b 73 3e 9e 95 b9 3d
       0.01720116 -0.38158923 0.23747163 0.0906174
000140 1a c6 12 3f 29 f4 18 3f 93 c0 b2 be 62 a0 61 be
       0.5733353 0.5974756 -0.34912547 -0.22033837
000150 7e 08 fc 3d 89 e9 90 be 1a 7d aa bd 2f a0 8f be
       0.12306307 -0.28303173 -0.083246425 -0.28051898
000160 aa 4f 1b 3d bd b5 15 3f 99 d6 09 3f da dc 48 bd
       0.03791777 0.58480436 0.53843075 -0.049038745
000170 93 29 f7 3d 78 f6 0c bd a4 3c 0d 3f f4 10 0a 3c
       0.120684765 -0.03441474 0.55170655 0.0084268935
000180 62 74 b1 be 6e 74 b1 be ae 36 b5 3e 53 60 a5 3e
       -0.34659106 -0.3465914 0.3539328 0.32300052

bias f4 [10]
000000 d8 cf 6d be f7 8c ff 3d b2 77 eb bd 9c 8d 7c be
       -0.23223817 0.12478059 -0.114974394 -0.24663395
000010 a3 a0 ba bd 4a 47 ca bd b4 38 01 bf 44 41 a7 be
       -0.0911267 -0.098768786 -0.5047715 -0.3266698
000020 36 07 1a 3e d5 59 01 bd
       0.15041813 -0.03157981

weight f4 [2, 10]
000000 58 9d 0b be 57 fb 6d be 8a 0f 70 be ba c0 a6 bd
       -0.1363424 -0.2324041 -0.23443428 -0.081422284
000010 3f 9a bb be d6 54 89 be de 7c 0d be 83 18 ae bd
       -0.36641118 -0.26822537 -0.13817164 -0.08500769
000020 e1 ad 3a 3e 1c 18 03 be eb 81 bc 3e 29 1e 3a 3d
       0.18230392 -0.12802166 0.3681787 0.04543892
000030 cd 62 d9 bd 18 a1 6d be 58 fe af 3e 2a 36 27 3e
       -0.10614548 -0.23205984 0.34373736 0.16329256
000040 19 93 04 be 82 e0 e6 bc 6b 00 d5 be dd af 9f bd
       -0.12946738 -0.028183226 -0.4160188 -0.07797215

bias f4 [2]
000000 63 06 63 3f 45 82 39 bf
       0.8868162 -0.724644
