growingspheres/models/saved/old/UCI_retrained_GS.pt (torch, 4901 bytes, 6 tensors)

weight f4 [10, 23]
0	0x3f95d730	1.1706295
1	0x3e79a389	0.2437879
2	0x3dafa9bc	0.08577296
3	0x3efbbf67	0.49169466
4	0x3e8d02d2	0.27541214
5	0xbf0e79b5	-0.5565446
6	0xbf0374c7	-0.51350063
7	0xbeca43df	-0.39504907
8	0xbe9d4175	-0.30714002
9	0xbf0eb072	-0.55737984
10	0xbebd66a7	-0.3699238
11	0x3ea8f781	0.3300133
12	0x3ed04323	0.4067622
13	0x3e631624	0.22176415
14	0x3e080d37	0.13286291
15	0x3d29499a	0.041329958
16	0x3eb583c7	0.354521
17	0x3fc89ffb	1.5673822
18	0x3fca238e	1.57921
19	0x3fb5417f	1.4160613
20	0x3fb5b350	1.4195347
21	0x3f818d7e	1.0121305
22	0x3fa111fa	1.2583611
23	0xbb58932e	-0.003304671
24	0xbe99c2cc	-0.3003143
25	0x3c1b0bb2	0.009463238
26	0xbeac4621	-0.33647254
27	0xbeae5b60	-0.3405409
28	0xbe956868	-0.29181218
29	0xbd1a5710	-0.037680686
30	0xbe7152be	-0.2356672
31	0xbe849887	-0.2589762
32	0xbda52634	-0.08063927
33	0xbebec0ea	-0.37256557
34	0xbd931453	-0.07181611
35	0xbe22ee07	-0.15911113
36	0x3ba45940	0.0050155222
37	0xbdf4ed7a	-0.119593576
38	0xbe181c5d	-0.1485457
39	0xbe160a65	-0.14652403
40	0xbe41cc73	-0.18925647
41	0xbe03567f	-0.12825964
42	0x3ce0d9ad	0.027447546
43	0x3c5ad24f	0.013355806
44	0x3c5ba6d9	0.013406479
45	0x3cae4ad3	0.021275913
46	0xbe9b03e9	-0.3027642
47	0xbcb3df4e	-0.021957066
48	0xbe8a0c52	-0.26962525
49	0xbe438cc7	-0.19096671
50	0xbec417cd	-0.3829941
51	0xbe391632	-0.18074873
52	0xbebbe03e	-0.3669452
53	0xbe98a633	-0.298143
54	0xbe0d307e	-0.1378803
55	0xbe8b9e07	-0.27269003
56	0xbd00025c	-0.03125225
57	0xbd8fe93d	-0.070269085
58	0xbec179f5	-0.37788358
59	0xbe6e5eb7	-0.23278318
60	0xbda61d27	-0.08111029
61	0xbe3f3eec	-0.18676347
62	0xbdc2a7fd	-0.095046975
63	0xbe1e3268	-0.15448916
64	0xbe0297b9	-0.1275319
65	0x3c91a96c	0.017780982
66	0xbc05e3cf	-0.00817199
67	0xbd00b92c	-0.031426594
68	0xbdaf0abd	-0.0854697
69	0xbd8114e3	-0.06302812
70	0xbe930dd5	-0.2872149
71	0xbd68963f	-0.05678391
72	0xbe83edc4	-0.25767338
73	0xbddc23dc	-0.10749027
74	0xbe4494b9	-0.19197358
75	0xbe8e4428	-0.27786374
76	0xbde63830	-0.11241186
77	0xbe4f0257	-0.20215736
78	0x3c90c945	0.017674098
79	0xb96ab432	-0.00022383107
80	0x3c02f520	0.007993013
81	0xbea64660	-0.32475567
82	0xbea25879	-0.31708124
83	0xbcf06ad3	-0.029347813
84	0xbde66c16	-0.112510845
85	0xbec5db63	-0.3864394
86	0xbd94aafd	-0.07259176
87	0xbe92c80a	-0.28668243
88	0xbdca58cc	-0.09880218
89	0xbebc6175	-0.36793104
90	0xbe18b799	-0.14913787
91	0xbe848fd8	-0.25890994
92	0xbe5b3103	-0.21405415
93	0xbeb12006	-0.34594744
94	0xbd660aed	-0.056162763
95	0xbcca89aa	-0.024723846
96	0xbdaa93d6	-0.08328979
97	0xbecbb3ee	-0.39785713
98	0xbe60cd1f	-0.21953247
99	0xbe52ae29	-0.2057425
100	0xbe2f613e	-0.17126939
101	0xbcd4727b	-0.025933495
102	0xbd4db0d7	-0.050217476
103	0xbe88a979	-0.26691797
104	0xbde8cfe4	-0.11367777
105	0xbe8fa3a3	-0.28054532
106	0xbe120ca7	-0.14262639
107	0xbe798ba3	-0.24369673
108	0xbdb6a436	-0.089180395
109	0xbe3c77ab	-0.18405025
110	0xbd13d7af	-0.036094364
111	0xbd814f6e	-0.06313978
112	0xbe42a6d1	-0.19008948
113	0xbe8812ca	-0.26576835
114	0xbeab4145	-0.33448234
115	0x3f5bbd9a	0.85836184
116	0x3f063c88	0.52436113
117	0x3eb2dfdf	0.34936425
118	0x3ea3eae4	0.32015145
119	0x3eda6476	0.4265477
120	0xbd608b0a	-0.054820098
121	0x3da1b6dc	0.07896206
122	0x3e883d6b	0.26609358
123	0x3e9be82d	0.30450574
124	0x3d1fe2ae	0.039034538
125	0xbc419e78	-0.011817567
126	0x3ef59f8f	0.47973296
127	0x3e9e8f23	0.3096858
128	0x3efa30f7	0.48865482
129	0x3efb816c	0.4912218
130	0x3e867ed7	0.26268646
131	0x3ed0efc3	0.40807924
132	0x3f6cc22c	0.9248378
133	0x3f544a92	0.82926285
134	0x3f405fbc	0.7514608
135	0x3f7e260b	0.992768
136	0x3f654506	0.89558446
137	0x3f4ac3cd	0.7920502
138	0x3c8d4187	0.01724316
139	0xbe411471	-0.18855454
140	0xbea2968a	-0.31755477
141	0x3c665b14	0.014059801
142	0xbe0e2983	-0.13883023
143	0xbdef3ff3	-0.11682119
144	0xbd99faea	-0.07518561
145	0xbe85a724	-0.2610408
146	0xbe8df96b	-0.27729353
147	0xbd815bb9	-0.06316323
148	0xbeadec8c	-0.33969533
149	0xbebd4144	-0.36963856
150	0xbeaaf0ac	-0.33386743
151	0xbe93c14b	-0.28858408
152	0xbe397bf2	-0.18113688
153	0x3a06329b	0.0005119235
154	0xbd969861	-0.07353283
155	0xbeb0eeb8	-0.34557128
156	0xbebeebda	-0.37289315
157	0xbda04781	-0.07826138
158	0xbd21aac9	-0.039469514
159	0xbd06bc4d	-0.03289442
160	0xbea3516a	-0.31898052
161	0x3f36e1e8	0.71438456
162	0x3e504f62	0.20342782
163	0x3da6762e	0.0812801
164	0x3e0ebe5c	0.13939804
165	0xbbe6c9a0	-0.0070430785
166	0xbf32e10b	-0.6987464
167	0xbe8f16a8	-0.27946973
168	0xbee999a8	-0.45625043
169	0xbebcbdf5	-0.36863676
170	0xbe890e76	-0.26768845
171	0xbe949124	-0.29016984
172	0x3e9c843e	0.30569643
173	0x3ea3bc33	0.31979522
174	0x3e44ee3b	0.19231503
175	0x3e54738c	0.20747203
176	0x3e18e186	0.1492978
177	0x3de10354	0.10986963
178	0x3fafa7dd	1.3723103
179	0x3fa51454	1.2896829
180	0x3f90352d	1.1266228
181	0x3f81c7c5	1.013909
182	0x3f93eeb2	1.1557219
183	0x3f90b7a3	1.1306041
184	0x3f9cd455	1.2252299
185	0x3b97b5c3	0.004629822
186	0x3e8d208a	0.27563888
187	0x3ee4cc35	0.44687048
188	0x3e1abf3c	0.15112013
189	0xbf31cd10	-0.69453526
190	0xbee7f1c4	-0.4530164
191	0xbef60b7d	-0.4805564
192	0xbe9efcc6	-0.31052226
193	0xbea84682	-0.32866293
194	0xbeb471c3	-0.35243043
195	0x3df5271f	0.119703524
196	0x3dfdc9b5	0.12391988
197	0x3e7449da	0.23856297
198	0x3dd2ef43	0.10299542
199	0xbdaacda6	-0.083400056
200	0x3e7f34f9	0.24922551
201	0x3fb304ff	1.39859
202	0x3fc08c0e	1.5042741
203	0x3f9ea5db	1.2394365
204	0x3fb7461a	1.4318268
205	0x3fbb36aa	1.4626057
206	0x3fb72665	1.4308592
207	0xbe3b7788	-0.18307316
208	0xbe162b7b	-0.14665024
209	0xbe8e8e99	-0.27843168
210	0xbe5a16ae	-0.21297714
211	0xbe0d0651	-0.13771941
212	0xbe3193e0	-0.17341566
213	0xbd6db8e6	-0.05803766
214	0xbe1dcb80	-0.1540966
215	0xbe39c044	-0.1813975
216	0xbecbe5fe	-0.39823908
217	0xb799b8fa	-1.8325158e-05
218	0x3a2be01b	0.00065565266
219	0xbe8afa00	-0.2714386
220	0xbe6b011a	-0.22949639
221	0xbe22a304	-0.15882498
222	0xbdbac1b5	-0.09118978
223	0xbdc4e2d7	-0.09613579
224	0xbec9722b	-0.39344916
225	0xbe6ffdae	-0.23436615
226	0xbe6c08ab	-0.23050182
227	0xbdba5604	-0.090984374
228	0xbd9e10f5	-0.07718078
229	0xbc2d7c66	-0.010588741

bias f4 [10]
0	0x3d8e5050	0.06948912
1	0xbe1482cd	-0.14503022
2	0xbe9d37f6	-0.30706757
3	0xbe597b10	-0.21238351
4	0xbe6ab538	-0.22920692
5	0x3e11c7d0	0.14236379
6	0xbebd61cb	-0.36988673
7	0x3ebb20df	0.36548516
8	0x3eb0b3a8	0.34512067
9	0xbe560be4	-0.20902973

weight f4 [10, 10]
0	0xbf43f80d	-0.7655037
1	0x3db20da3	0.08694007
2	0xbe619355	-0.22028859
3	0x3e31916f	0.17340635
4	0x3e96c534	0.2944733
5	0x3f1ab268	0.60428476
6	0x3e04e590	0.12978196
7	0xbf1923f4	-0.59820485
8	0xbed15c11	-0.40890554
9	0xbe3b6075	-0.18298514
10	0xbd6b85f8	-0.05750081
11	0xbdc91794	-0.0981895
12	0x3d367819	0.044548128
13	0xbcf911f6	-0.030404072
14	0xbed111a3	-0.40833768
15	0xbe4d21b4	-0.20032388
16	0xbc1ec8a1	-0.009691388
17	0xbe8f6a30	-0.28010702
18	0xbe7858d7	-0.2425264
19	0x3d85b045	0.06527761
20	0xbe4eae01	-0.20183565
21	0x3d07f71b	0.033194643
22	0xbd38d9d7	-0.045129623
23	0xbeabfac5	-0.3358976
24	0xbe83b492	-0.25723702
25	0xbe7c95c2	-0.24666503
26	0xbe8f4053	-0.27978763
27	0xbe826d76	-0.25474137
28	0xbd85212c	-0.06500468
29	0xbe5cb588	-0.21553624
30	0x3e029e57	0.12755714
31	0xbec15f51	-0.37768033
32	0xbe29a3d2	-0.16566399
33	0xbdf8be3f	-0.121456616
34	0xbe800239	-0.25001696
35	0xbd9bc237	-0.07605403
36	0x3da2ffbb	0.07958933
37	0x3e62ed8e	0.22160932
38	0xbeb2377a	-0.3480795
39	0xbee56861	-0.44806197
40	0x3ece4c2a	0.40292484
41	0xbec82619	-0.39091566
42	0x3e862506	0.26200122
43	0x3e296ca5	0.16545351
44	0xbeeeb574	-0.46622813
45	0xbcfef766	-0.031123828
46	0x3ea76e31	0.32701257
47	0x3e8ff9d8	0.28120303
48	0x3e90890e	0.28229564
49	0x3ed6ab8c	0.41927755
50	0x3f0d76f4	0.55259633
51	0x3e49b680	0.19698524
52	0xbe015bce	-0.12632677
53	0xbca85db7	-0.0205525
54	0xbe5ff03c	-0.21868986
55	0x3e6642c5	0.22486408
56	0x3e4d38ba	0.2004117
57	0x3eb62bf8	0.3558042
58	0x3ef3b754	0.47600806
59	0x3cba7517	0.02276091
60	0xbdfbc232	-0.12292899
61	0x3ca066dc	0.019580297
62	0xbbbb5c41	-0.0057177846
63	0xbde1c028	-0.11022979
64	0xbe953b76	-0.29146928
65	0xbeb802c3	-0.35939607
66	0x3c8c5f02	0.017135147
67	0xbeb11553	-0.34586582
68	0xbd8d2879	-0.06892485
69	0xbeae2f15	-0.34020296
70	0xbf02915c	-0.5100305
71	0xbebcb4f7	-0.36856815
72	0x3e03bf14	0.1286586
73	0xbe9386fc	-0.28813922
74	0xbee809b3	-0.453199
75	0xbee7d53f	-0.4527988
76	0xbd77156b	-0.06032316
77	0xbe4fbb93	-0.20286398
78	0xbe94d744	-0.29070485
79	0x3ceb11cb	0.028695008
80	0xbe355f36	-0.17712101
81	0xbe8e633a	-0.2781008
82	0x3e5ee727	0.21767865
83	0xbe942571	-0.28934816
84	0xbe348e01	-0.17632295
85	0xbe984a6c	-0.2974428
86	0xbe33a249	-0.17542376
87	0xbeb929a2	-0.36164576
88	0x3d652d4b	0.055951398
89	0x3e94dc6e	0.29074425
90	0x3ce3c019	0.02780156
91	0x3e1b12f0	0.15143943
92	0x3d112417	0.03543481
93	0xbe1b7083	-0.15179639
94	0xbc85126d	-0.016244138
95	0xbd6b54e8	-0.05745402
96	0xbd9fb9e4	-0.07799128
97	0xbe65c758	-0.22439325
98	0x3e3ff72b	0.18746631
99	0x3e39a16a	0.18127981

bias f4 [10]
0	0x3e8e079f	0.2774019
1	0xbe8815ce	-0.26579136
2	0xbe4359b7	-0.19077192
3	0x3e068269	0.13135685
4	0x3d819481	0.06327153
5	0x3ed5b818	0.41742015
6	0xbdc91b95	-0.09819714
7	0xbe17e00e	-0.14831564
8	0xbe918670	-0.2842288
9	0xbe8f3c59	-0.2797573

weight f4 [2, 10]
0	0xbf82c1ed	-1.0215431
1	0x3e171431	0.14753796
2	0xbe686fe3	-0.22698931
3	0x3dc6a08b	0.0969859
4	0xbdda1a53	-0.10649552
5	0x3ee5e0bc	0.4489802
6	0x3ea8ae51	0.32945493
7	0x3e2377b1	0.15963627
8	0x3e9231aa	0.28553516
9	0xbe5de5d2	-0.216697
10	0x3f07a8a5	0.52991706
11	0x3d545f3c	0.051848635
12	0x3ec6644c	0.38748395
13	0xbe9bdfb0	-0.30444098
14	0xbeb597b0	-0.3546729
15	0xbe8886b8	-0.26665282
16	0xbca3f99a	-0.02001648
17	0xbd854df6	-0.065090105
18	0x3e0e7c99	0.13914718
19	0xbcd08c57	-0.025457544

bias f4 [2]
0	0x3ea6ed78	0.3260305
1	0xbebd1bcd	-0.36935273
