growingspheres/models/saved/old/UCI_retrained_GC.pt (torch, 4901 bytes, 6 tensors)

weight f4 [10, 23]
0	0xbe8a6f91	-0.27038243
1	0xbd6453da	-0.05574403
2	0xbe62b81d	-0.22140546
3	0xbe943606	-0.28947467
4	0xbed1923e	-0.40931886
5	0x3e4a3c72	0.1974962
6	0x3ebb5c8f	0.36594054
7	0x3d62d886	0.055382274
8	0x3e01d264	0.12677914
9	0x3e097e66	0.13427123
10	0xbc4d6b02	-0.01253772
11	0xbec7bb2e	-0.39009994
12	0xbe05e35a	-0.13075009
13	0xbed1ec94	-0.41000807
14	0xbef22c3d	-0.47299376
15	0xbec23088	-0.3792765
16	0xbe8e5d1a	-0.27805406
17	0xbeeffaff	-0.46871182
18	0xbf31915f	-0.69362444
19	0xbec535b1	-0.38517526
20	0xbf2d7018	-0.67749166
21	0xbec4dc41	-0.3844929
22	0xbf1e303d	-0.61792356
23	0xbe7cf95e	-0.24704501
24	0x3d25ec9d	0.040508855
25	0xbe056b25	-0.13029154
26	0x3de2d609	0.1107598
27	0xbcfc4102	-0.030792717
28	0x3f75d94e	0.96034706
29	0x3ebf022d	0.37306347
30	0x3e8d5bdf	0.27609155
31	0x3e1ee7dd	0.15518136
32	0xbc098aab	-0.008394877
33	0x3b626bb6	0.0034549064
34	0x3d8876be	0.06663273
35	0x3db84f8a	0.08999546
36	0xbe4052b5	-0.1878155
37	0x3d8e5879	0.069504686
38	0x3e320b92	0.17387226
39	0xbe7cdf2f	-0.24694513
40	0xbe847a90	-0.25874758
41	0xbf24ac90	-0.6432581
42	0xbe79eb43	-0.24406151
43	0xbe55101e	-0.2080693
44	0xbdf517c9	-0.11967427
45	0xbea856a7	-0.3287861
46	0xbed64cf1	-0.41855577
47	0xbe0f82bd	-0.14014716
48	0xbdf7e171	-0.121035464
49	0xbed69291	-0.41908696
50	0xbe39ca8e	-0.18143675
51	0xbe927bbb	-0.28610024
52	0xbe9946e8	-0.2993691
53	0x3daec671	0.085339434
54	0xbd4cbefa	-0.049986817
55	0xbe870a81	-0.263752
56	0xbd36c026	-0.04461684
57	0xbc9fb8f4	-0.019497372
58	0xbdff8733	-0.12476959
59	0xbc86cac6	-0.016454112
60	0xbe9575fb	-0.29191574
61	0xbd98dbfc	-0.07463834
62	0xbd397c26	-0.045284413
63	0xbec62647	-0.38701078
64	0xbe269b5f	-0.16270207
65	0x3e34202e	0.175904
66	0x3d79a626	0.060949467
67	0x3e9bf479	0.30459955
68	0xbdab6a6d	-0.083699085
69	0xbdd788fe	-0.10524176
70	0x3db7469d	0.08949015
71	0x3d583deb	0.052793425
72	0xbe0cb8d8	-0.13742387
73	0xbd065175	-0.032792527
74	0x3f6aa4bf	0.9165763
75	0x3e81eb48	0.25374818
76	0x3d528e16	0.051405035
77	0x3dd22e3a	0.10262723
78	0x3df4ba4e	0.11949597
79	0xbe333d7a	-0.1750392
80	0x3d245f4e	0.040129952
81	0xbddb15b1	-0.10697497
82	0xbe1e5ddf	-0.15465496
83	0xbe3116a5	-0.17293794
84	0xbd00bbf5	-0.03142925
85	0xbd75abc4	-0.05997826
86	0xbf212834	-0.6295197
87	0xbf62d305	-0.8860324
88	0xbf1b0269	-0.6055055
89	0xbe90418f	-0.28175017
90	0xbe6fafc4	-0.23406893
91	0xbeda3932	-0.42621762
92	0xbc95d593	-0.018290317
93	0xbcbe6d44	-0.023245461
94	0xbd9df41f	-0.07712578
95	0xbe4fd342	-0.20295432
96	0xbe3273b9	-0.17426957
97	0x3f432af9	0.76237446
98	0x3e6befe2	0.23040727
99	0x3e9f6950	0.31135035
100	0x3e4df1d8	0.20111787
101	0x3e59f63e	0.2128534
102	0x3e5c85fb	0.21535484
103	0xbda70b99	-0.08156509
104	0x3bf666a0	0.007519558
105	0xbd8d6cda	-0.069055274
106	0x3e04c13d	0.1296434
107	0x3e8e9e3b	0.27855095
108	0x3db4831c	0.0881407
109	0xbf2a488a	-0.66516936
110	0xbf4f04f5	-0.8086694
111	0x3c5f1d07	0.0136177605
112	0xbe6e3503	-0.2326241
113	0xbe6c4fa5	-0.23077257
114	0xbeac0b7e	-0.33602518
115	0xbe9fdf43	-0.31225023
116	0x3e27acb6	0.16374478
117	0xbeab67e0	-0.33477688
118	0xbeae2f22	-0.34020334
119	0xbe47d74c	-0.19515723
120	0xbd129557	-0.035786953
121	0x3c88c66f	0.016696183
122	0xbccdd1fe	-0.025124546
123	0xbeaa4974	-0.33259165
124	0xbeae24bc	-0.340124
125	0xbebcf0f8	-0.36902595
126	0xbe4bf40f	-0.1991732
127	0x3bf4f43d	0.0074754045
128	0xbdd8ca7d	-0.105854966
129	0xbe9cfcad	-0.30661526
130	0xbe2efc7d	-0.17088504
131	0xbecde2d0	-0.40212107
132	0x3dc15be4	0.09441355
133	0x3dd6e2c2	0.10492469
134	0x3e7f4232	0.24927595
135	0x3eb93969	0.36176613
136	0x3d9e26f6	0.07722275
137	0xbd0236d8	-0.031790584
138	0xbe8bcb0a	-0.27303344
139	0x3da5bfdc	0.08093235
140	0x3d57610f	0.052582797
141	0x3dd705a9	0.104991265
142	0x3e4cdaf5	0.200054
143	0x3f71a575	0.9439309
144	0xbd459db7	-0.04824611
145	0x3e818a08	0.25300622
146	0x3de47dd7	0.111568145
147	0x3e1557ac	0.14584225
148	0x3de3de0e	0.11126338
149	0xbe4ce3c3	-0.20008759
150	0xbdf6bfdd	-0.12048314
151	0x3c5bcd96	0.013415715
152	0x3c365d5e	0.011130659
153	0xbd742150	-0.05960208
154	0xbea4db5f	-0.32198617
155	0xbf0772a7	-0.5290932
156	0xbf602840	-0.87561417
157	0xbead55a5	-0.33854404
158	0xbed45742	-0.41472822
159	0xbeed07f4	-0.4629513
160	0xbe185766	-0.1487709
161	0x3e919144	0.2843114
162	0x3e7ecbe7	0.2488247
163	0x3e8198cd	0.2531189
164	0x3e3b6f9e	0.18304297
165	0xbe066af3	-0.13126735
166	0xbf58cff2	-0.846923
167	0x3d9bd856	0.07609622
168	0x3de6489b	0.11244317
169	0x3d8f9a7a	0.07011886
170	0x3e34c272	0.176523
171	0xbd849256	-0.06473224
172	0xbcfa0abf	-0.030522702
173	0xbe2c2a57	-0.16813026
174	0x3d837588	0.06418902
175	0x3e4792fe	0.19489667
176	0xbd0038a1	-0.031304006
177	0x3e1e3cf1	0.15452935
178	0x3f85b447	1.0445641
179	0x3fa69db1	1.3016874
180	0x3f369c11	0.7133189
181	0x3f3d3425	0.7390769
182	0x3f214737	0.6299929
183	0x3f45679d	0.77111226
184	0xbdd93862	-0.10606457
185	0x3c3a8e0d	0.011386407
186	0xbdfb4d98	-0.12270659
187	0xbde04704	-0.10951045
188	0xbe17932a	-0.14802232
189	0x3f52de9d	0.8237093
190	0x3e72b5c8	0.23702157
191	0x3edd2b8d	0.4319729
192	0xbbd511db	-0.0065023727
193	0x3e94138c	0.28921163
194	0x3ddbf438	0.107399404
195	0xbe6838cc	-0.22677916
196	0x3e708a94	0.23490363
197	0x3ddea91d	0.108720995
198	0xbe28d656	-0.16488013
199	0x3e53416e	0.20630428
200	0xbe221495	-0.15828164
201	0xbeff6a57	-0.49885818
202	0xbf41b3c5	-0.7566493
203	0x3e22b193	0.15888052
204	0xbecbf2fb	-0.39833817
205	0x3cac350c	0.021021388
206	0x3d544f76	0.051833592
207	0xbe3e6f49	-0.1859714
208	0xbd37ce44	-0.044874445
209	0xbe61da1d	-0.2205586
210	0x3d248ffc	0.040176377
211	0xbd9792b6	-0.0740103
212	0x3f1e4673	0.61826247
213	0x3ea9bf0e	0.33153576
214	0x3e1e6f22	0.15472081
215	0x3df7b107	0.12094312
216	0x3e863d2c	0.26218545
217	0xbcc8e615	-0.024523774
218	0xbe01e0fd	-0.12683482
219	0x3de9cc9c	0.11415979
220	0x3e542d83	0.20720486
221	0x3df5b690	0.11997712
222	0x3ec60544	0.38675892
223	0x3da40f34	0.08010712
224	0xbeb82600	-0.35966492
225	0xbf384025	-0.71972877
226	0xbd40e668	-0.047094733
227	0xbea4cc09	-0.32186916
228	0xbdc0bc7f	-0.09410953
229	0xbd0cef26	-0.034407757

bias f4 [10]
0	0xbed25b3a	-0.41085225
1	0xbdbdc418	-0.092659175
2	0xbe579217	-0.21051823
3	0xbdd4eca1	-0.10396696
4	0xbe8569b8	-0.2605722
5	0xbcb4e186	-0.022080194
6	0xbdd43dd1	-0.10363353
7	0x3ecce652	0.4001947
8	0xbdaae221	-0.08343912
9	0xbd5e26ae	-0.054236107

weight f4 [10, 10]
0	0x3e28fff7	0.16503893
1	0xbe29f9b2	-0.16599157
2	0x3ee15db1	0.44016793
3	0xbeb8363f	-0.35978886
4	0xbd61d976	-0.055139028
5	0x3e330323	0.17481665
6	0xbf14b1ba	-0.5808369
7	0x3dd6ea62	0.10493924
8	0xbe9c26a5	-0.30498233
9	0x3dfd400d	0.12365732
10	0x3dc25ce1	0.094903715
11	0xbe850bdc	-0.2598561
12	0x3df4edc8	0.11959416
13	0xbc82314d	-0.01589265
14	0x3bcd767b	0.0062702275
15	0xbe1ced7a	-0.15324965
16	0xbec5be67	-0.38621828
17	0xbec8ef94	-0.39245284
18	0x3cf7bf1d	0.030242497
19	0xbdebb7a6	-0.115096375
20	0xbee29f57	-0.44262192
21	0x3f279a52	0.6546985
22	0xbd91aeaa	-0.07113393
23	0x3ec2b1fe	0.38026422
24	0x3f33e6ad	0.7027386
25	0x3eb381fd	0.3506011
26	0xbebd3e32	-0.36961514
27	0xbeabd8a4	-0.3356372
28	0x3f0fa8bf	0.5611686
29	0x3e3bd355	0.18342336
30	0xbd2268cc	-0.039650723
31	0xbe9a8010	-0.3017583
32	0xbd3cf855	-0.046135265
33	0xbea07ed1	-0.31346753
34	0x3e318849	0.17337145
35	0x3d68d1cc	0.056840703
36	0xbe435773	-0.19076328
37	0xbd71b3e2	-0.05900944
38	0x3e27cca5	0.1638666
39	0xbe8ff352	-0.28115326
40	0x3e5f649b	0.21815722
41	0x3d485ae4	0.048914805
42	0xbda385da	-0.079845145
43	0xbe737b71	-0.23777558
44	0xbf087f04	-0.5331881
45	0xbe8a95a9	-0.27067307
46	0x3e8c6911	0.2742391
47	0xbe1f6778	-0.15566814
48	0xbe92369c	-0.2855729
49	0xbd6c30f5	-0.057663877
50	0x3ebaaea7	0.36461374
51	0xbecd08a0	-0.40045643
52	0xbe8c5950	-0.2741189
53	0xbe589d79	-0.21153821
54	0xbc297330	-0.010342404
55	0xbf3ddb4a	-0.74162734
56	0x3e82efa9	0.2557347
57	0xbecdc770	-0.4019122
58	0xbe5d3154	-0.21600848
59	0xbecb8a1c	-0.39753807
60	0xbf143961	-0.57900053
61	0xbed0d3ca	-0.40786582
62	0x3f2a86a8	0.6661172
63	0xbea5d0e4	-0.32385933
64	0xbd0d2a52	-0.034464188
65	0x3eb3e365	0.35134426
66	0xbf268f70	-0.6506262
67	0x3f070a62	0.5275022
68	0xbe904389	-0.28176525
69	0xbb8ec897	-0.0043574083
70	0x3e8cd2f2	0.27504689
71	0x3e8d9b33	0.2765747
72	0xbf09a670	-0.5376959
73	0x3ec92dde	0.39292806
74	0x3f09ec39	0.5387607
75	0xbeff9457	-0.49917862
76	0x3ec84769	0.39116982
77	0xbed241af	-0.41065738
78	0xbc71558d	-0.01472987
79	0x3e4fe202	0.20301059
80	0x3cee062a	0.029055674
81	0xbd9b1bcb	-0.075736605
82	0xbe8e80df	-0.27832696
83	0xbdefecc8	-0.11715084
84	0xbe7620f5	-0.2403601
85	0x3d7ac5ad	0.061223675
86	0xbde69d92	-0.11260523
87	0xbe8d8e6a	-0.27647716
88	0x3e9aeb78	0.30257773
89	0xbe9e40ac	-0.30908716
90	0x3ddd59d2	0.108081475
91	0x3d00dae1	0.03145874
92	0xbe737214	-0.23773986
93	0xbea2567f	-0.31706616
94	0xbe8e68af	-0.27814242
95	0x3da59ca3	0.08086517
96	0xbe9b20ec	-0.30298555
97	0xbd8324c0	-0.06403494
98	0xbcf8a8d9	-0.03035395
99	0xbe8a6505	-0.27030197

bias f4 [10]
0	0x3e9056cf	0.2819123
1	0xbea2189f	-0.3165941
2	0xbc5afbe1	-0.013365717
3	0xbee00406	-0.4375307
4	0xbeafabf8	-0.3431089
5	0x3ef03f72	0.46923405
6	0x3e97feba	0.29686528
7	0x3e8fad99	0.28062132
8	0xbd52c281	-0.051455025
9	0xbeb4890a	-0.35260803

weight f4 [2, 10]
0	0x3eb6f40e	0.35733074
1	0x3e27ade2	0.16374925
2	0xbd84a5a4	-0.06476906
3	0xbbfe236f	-0.007755689
4	0x3e953f10	0.29149675
5	0xbf160029	-0.58593994
6	0x3e769c80	0.24083138
7	0xbeccc225	-0.3999187
8	0x3daef5ca	0.08542974
9	0x3d817d81	0.06322766
10	0xbe500823	-0.20315604
11	0xbdefeb70	-0.11714828
12	0x3cc3980d	0.023876214
13	0xbdf99021	-0.121856935
14	0xbdb7a92e	-0.08967815
15	0x3ea50c40	0.32235909
16	0xbf1e9178	-0.6194072
17	0x3f134ce0	0.57539177
18	0x3e5a19d4	0.21298915
19	0x3e6d75b0	0.23189425

bias f4 [2]
0	0xbdabec70	-0.08394706
1	0x3e67cd4a	0.22636905
