GC_tabular/models/saved/UCI_retrained.pt (torch, 7113 bytes, 10 tensors)

weight f4 [10, 23]
-0.0801234 0.061623935 0.070613004 0.14794233 0.16014816 -0.8912138 -0.32244545 -0.24611898
-0.020439805 -0.093258865 -0.1449809 0.04442177 -0.081305094 0.0651148 -0.002928563 0.11901086
0.23988275 0.720864 0.76960284 0.25295317 0.3204069 0.3053623 0.4500891 -0.20154439
-0.28673428 -0.35060778 -0.21252273 -0.41661584 0.007918758 -0.0871526 -0.085469924 -0.17809843
0.031866655 -0.39232686 -0.042210698 -0.057387758 -0.130754 -0.37681684 -0.22323835 -0.2809637
0.04013843 -0.03688286 -0.00072759256 0.068441086 0.021532709 0.023363119 0.15446697 0.17296375
0.1634099 0.025446834 0.19743739 0.61888576 0.41386613 0.008199829 0.35016802 0.20301646
0.07996045 0.014832793 0.20251694 -0.01340248 0.057237454 0.25511286 -0.037231512 -0.34907445
-0.29754457 0.018378846 -0.20364918 0.101817496 -0.05123243 -0.042222813 0.244466 0.3028949
0.21938933 -0.118100174 -0.44486046 -0.14280106 -0.14854315 -0.13352075 0.11958716 0.16106668
0.04412775 -0.03977004 -0.0055315197 0.03377338 -0.09080065 0.3933158 0.76152676 0.8989885
0.4888385 0.59351325 0.35228658 0.5654748 -0.23858833 -0.058974158 0.021310864 0.10879902
-0.036361407 0.80844253 0.48324946 0.2059361 0.11261753 -0.048759807 0.027738973 0.18554065
-0.029800596 0.0913163 -0.09069672 0.34443393 0.112326324 -0.7300961 -0.8170074 -0.18067698
-0.37546095 -0.1888778 0.014667789 -0.2375875 0.058407962 0.02767643 -0.06832817 0.08969486
0.6097842 0.51116276 0.19963497 -0.10013706 0.024161156 -0.12477678 -0.12666582 0.17888644
0.019992668 0.058962256 0.04682014 -0.010025875 -0.7915959 -0.8199216 -0.012834829 -0.046150256
-0.2338686 -0.07711139 -0.14309774 0.016396567 -0.06719933 -0.09383898 -0.012444488 0.7260221
0.42386982 0.36805722 0.319051 0.059496928 0.09956131 -0.10419775 0.066940874 0.13510334
-0.049389295 0.008952767 0.11405597 -0.9006555 -0.7924093 -0.0813062 -0.33870497 -0.021558002
-0.22693451 0.17634393 -0.08066378 0.41100708 0.29137984 -0.062314477 -0.5714324 -0.47331402
-0.0890438 0.01507822 0.07271021 0.007133378 0.21465193 0.23743139 0.3542638 0.18501431
0.14781153 0.17258038 0.7023622 0.89608794 0.543518 0.61011094 0.2643104 0.50950515
0.01954722 -0.12595683 -0.009503435 -0.3199757 -0.10045583 -0.19169311 -0.1785392 -0.1530309
-0.15763827 -0.1652714 -0.12943093 -0.34097663 -0.23926558 -0.013745715 -0.27635416 -0.23570123
-0.2426877 -0.10989319 0.045780588 0.011059367 0.29215986 0.08823322 -0.1312801 0.032565195
0.12575655 0.1745823 0.14963911 0.17328538 -0.6662356 -0.024637189 -0.11388408 0.07712845
-0.017395008 -0.0048954105 0.08938323 0.1214932 -0.08473617 -0.035413135 -0.23808429 -0.07725626
0.5325936 0.7587178 0.20970614 0.53024906 0.2632937 0.19173977
00000000: bd17 a4bd 6169 7c3d 8d9d 903d 327e 173e
00000010: e1fd 233e 9626 64bf 9217 a5be 9d06 7cbe
00000020: 6171 a7bc 81fe bebd e075 14be 9af3 353d
00000030: 4983 a6bd e95a 853d 22ed 3fbb f7bb f33d
00000040: d3a3 753e 8b8a 383f b104 453f 1483 813e
00000050: 600c a43e 7358 9c3e 1472 e63e a761 4ebe
00000060: d6ce 92be dd82 b3be 8f9f 59be ac4e d5be
00000070: aebd 013c 107d b2bd db0a afbd 6f5f 36be
00000080: 9c86 023d 11df c8be 20e5 2cbd 6d0f 6bbd
00000090: 60e4 05be 23ee c0be 9898 64be 79da 8fbe
000000a0: 3268 243d 7b12 17bd e9bb 3eba d72a 8c3d
000000b0: 5d65 b03c 0364 bf3c 972c 1e3e 691d 313e
000000c0: ed54 273e e175 d03c 072d 4a3e 4c6f 1e3f
000000d0: 43e6 d33e 9358 063c 3949 b33e 8ce3 4f3e
000000e0: 4ec2 a33d 3e05 733c 9a60 4f3e 1396 5bbc
000000f0: d271 6a3d 279e 823e 1280 18bd e3b9 b2be
00000100: c357 98be 3c8f 963c 6989 50be b185 d03d
00000110: 19d9 51bd d4f1 2cbd 4c55 7a3e 0a15 9b3e
00000120: 99a7 603e 81de f1bd c0c4 e3be 713a 12be
00000130: b21b 18be aab9 08be 1dea f43d aaee 243e
00000140: 4dbf 343d e9e5 22bd c041 b5bb f555 0a3d
00000150: b1f5 b9bd b060 c93e 6bf3 423f 1c24 663f
00000160: 0a49 fa3e 7cf0 173f e85e b43e f5c2 103f
00000170: 8050 74be e38e 71bd 1f94 ae3c 05d2 de3d
00000180: b3ef 14bd 17f6 4e3f 796c f73e eae0 523e
00000190: 05a4 e63d 5db8 47bd d83c e33c 5efe 3d3e
000001a0: 6120 f4bc 0a04 bb3d 34bf b9bd a559 b03e
000001b0: 580b e63d 94e7 3abf 6627 51bf 6303 39be
000001c0: 6b3c c0be 2f69 41be 2b51 703c 234a 73be
000001d0: 303d 6f3d aeb9 e23c a4ef 8bbd f0b1 b73d
000001e0: d11a 1c3f 90db 023f 1c6d 4c3e a914 cdbd
000001f0: 9eed c53c f88a ffbd afb4 01be 022e 373e
00000200: aac7 a33c 6882 713d 7ac6 3f3d 9143 24bc
00000210: 07a6 4abf 62e6 51bf 2d49 52bc 0d08 3dbd
00000220: 407b 6fbe 94ec 9dbd 3788 12be 1852 863c
00000230: cd9f 89bd a72e c0bd f7e3 4bbc 96dc 393f
00000240: 7705 d93e ff71 bc3e a75a a33e 0db3 733d
00000250: cde6 cb3d a165 d5bd 4c18 893d 8858 0a3e
00000260: 6e4c 4abd a0ae 123c 2d96 e93d 5c91 66bf
00000270: 56db 4abf dd83 a6bd bd6a adbe 689a b0bc
00000280: 8561 68be 8193 343e 0d33 a5bd 856f d23e
00000290: bd2f 953e 773d 7fbd 6549 12bf 3756 f2be
000002a0: 995c b6bd a30a 773c 17e9 943d 1dbf e93b
000002b0: b7cd 5b3e 3721 733e 1162 b53e 6474 3d3e
000002c0: e85b 173e e9b8 303e 02ce 333f 0566 653f
000002d0: ff23 0b3f 3b30 1c3f b153 873e ee6e 023f
000002e0: 7e21 a03c d4fa 00be 4cb4 1bbc dbd3 a3be
000002f0: c9bb cdbd 334b 44be fbd2 36be 22b4 1cbe
00000300: ed6b 21be e83c 29be 8b89 04be 7d94 aebe
00000310: 0902 75be b535 61bc 4b7e 8dbe aa5b 71be
00000320: 2083 78be ae0f e1bd 6d84 3b3d 5932 353c
00000330: fa95 953e 9eb3 b43d 4a6e 06be 1563 053d
00000340: 53c6 003e b4c5 323e ff3a 193e b971 313e
00000350: 6b8e 2abf eed3 c9bc 0e3c e9bd 85f5 9d3d
00000360: fa7f 8ebc ae69 a0bb 8e0e b73d 6dd1 f83d
00000370: 288a adbd 5d0d 11bd 5ecc 73be 8838 9ebd
00000380: 0e58 083f 543b 423f 35bd 563e 67be 073f
00000390: 6fce 863e 6e57 443e

bias f4 [10]
0.33021125 -0.42133433 0.0245671 0.13611044 -0.19312117 -0.016688487 0.016433824 0.102943525
-0.097734995 0.32605344
00000000: 7311 a93e 22b9 d7be f140 c93c 8960 0b3e
00000010: 8ec1 45be 4bb6 88bc 3aa0 863c 0ed4 d23d
00000020: 4929 c8bd 7af0 a63e

weight f4 [10, 10]
0.24633531 -0.18486874 -0.11769461 0.30337593 -0.24805638 -0.04748013 0.27060297 0.39747998
-0.16518725 -0.19235684 -0.31058988 0.29473767 -0.1014402 -0.08452372 -0.23439087 0.20319863
0.2591378 0.082079135 -0.041517153 0.29677123 -0.11353004 0.20529056 -0.5523239 -0.3548888
-0.40596214 -0.33104953 -0.09530513 -0.050581947 -0.03661668 -0.25715384 -0.4940208 0.31266308
0.3744345 -0.021661386 0.1538112 0.033890907 0.5152444 0.06891782 0.02365124 0.095302045
0.33443794 0.36883476 0.1459029 0.03609499 -0.48701823 -0.3388219 -0.28108978 0.49286976
-0.2487315 0.1530192 -0.32466373 -0.0055185813 -0.14997523 -0.40082136 0.06823498 -0.37216905
0.065612204 0.07154992 0.023510253 0.19531949 0.39255673 0.10427046 0.19294727 0.045131736
-0.24588904 -0.35174465 -0.32828456 0.46325594 -0.30115035 0.22824802 -0.67504114 0.093596615
0.23291458 0.14768359 0.43432254 0.5456268 0.54314905 -0.18584986 0.17356211 -0.017736213
0.44096097 0.010092484 0.006163384 0.078260265 -0.15453537 -0.35538048 -0.31991538 0.076983444
0.14150797 0.49845895 0.4083469 -0.36204818 -0.21279041 0.32680944 -0.4270698 -0.35154092
-0.32209814 0.2802959 0.010896097 0.32946384
00000000: 533f 7c3e 3b4e 3dbe df09 f1bd 1754 9b3e
00000010: 7e02 7ebe 867a 42bd 798c 8a3e 7f82 cb3e
00000020: d926 29be 31f9 44be a305 9fbe dbe7 963e
00000030: e1bf cfbd c61a adbd 2904 70be 4d13 503e
00000040: b6ad 843e 1b19 a83d e40d 2abd 66f2 973e
00000050: 7082 e8bd b037 523e 1965 0dbf fcb3 b5be
00000060: 45da cfbe 537f a9be 562f c3bd 042f 4fbd
00000070: 5ffb 15bd aba9 83be 4bf0 fcbe 6015 a03e
00000080: e1b5 bf3e 3873 b1bc af80 1d3e 31d1 0a3d
00000090: 0fe7 033f c924 8d3d 3fc0 c13c b82d c33d
000000a0: 733b ab3e e9d7 bc3e 9267 153e 57d8 133d
000000b0: 745a f9be 107a adbe 00eb 8fbe 6d59 fc3e
000000c0: 78b3 7ebe 11b1 1c3e 533a a6be 37d5 b4bb
000000d0: 1b93 19be 7538 cdbe c8be 8b3d f18c bebe
000000e0: b15f 863d c488 923d 9398 c03c d501 483e
000000f0: 32fd c83e c08b d53d f893 453e 0edc 383d
00000100: 56ca 7bbe e017 b4be ea14 a8be e22f ed3e
00000110: 6130 9abe d9b9 693e 7fcf 2cbf 95af bf3d
00000120: 2981 6e3e 5e3a 173e 865f de3e 33ae 0b3f
00000130: d10b 0b3f 6d4f 3ebe 44ba 313e 894b 91bc
00000140: a3c5 e13e f25a 253c 36f6 c93b eb46 a03d
00000150: 853e 1ebe 6ef4 b5be f3cb a3be 7fa9 9d3d
00000160: 77e7 103e 0336 ff3e d812 d13e 615e b9be
00000170: bbe5 59be 9153 a73e e5a8 dabe 2cfd b3be
00000180: 0cea a4be f282 8f3e 8b85 323c 7caf a83e

bias f4 [10]
-0.10285477 -0.21535593 -0.11443826 -0.17312843 0.29200742 -0.32972276 0.099948734 0.25034392
0.2564317 0.40772644
00000000: 86a5 d2bd 4486 5cbe 9b5e eabd 9448 31be
00000010: ff81 953e 6cd1 a8be ecb1 cc3d 142d 803e
00000020: 044b 833e 85c1 d03e

weight f4 [10, 10]
-0.2826088 -0.2519946 0.28046748 -0.015858043 0.14532045 -0.04542776 0.27041855 -0.20103726
-0.24600853 -0.13179432 -0.115820765 -0.2988179 -0.07445477 0.20361178 -0.4218328 -0.22389792
-0.2120945 0.2634649 -0.5541994 -0.2995897 0.3404963 -0.09952212 0.14501713 -0.033586275
0.70004964 -0.065442964 0.50914735 -0.26622772 0.2642283 0.58741385 -0.18361804 -0.3159185
-0.088964224 -0.13542995 0.5725668 0.0017136151 0.4484493 -0.17987949 0.42850226 0.3955721
0.10897985 -0.3000096 -0.13506684 0.09077037 0.31999257 0.20129567 -0.008574591 0.17925087
0.34107473 0.083845876 0.000970963 0.1375522 0.10910338 0.5221971 -0.31228274 0.017218411
-0.32273078 0.37196478 -0.48160273 -0.4092391 0.12168307 0.13589385 0.1839638 0.41486675
-0.56425434 -0.14181392 -0.09345241 0.5758932 -0.5538197 -0.5223351 0.2732093 0.25335577
0.21122156 0.22631598 0.04910577 -0.28023246 0.45776707 0.4052157 0.18427968 0.22669755
0.059385516 0.044309694 -0.06833471 -0.26540375 0.5651713 0.23852076 0.11722727 0.067010544
0.3875796 0.47877714 -0.07620439 -0.25877532 0.117414795 0.18844377 -0.2585267 -0.089965105
0.3043178 -0.13487649 -0.22505194 0.12841241
00000000: 1ab2 90be 7005 81be 6f99 8f3e bae8 81bc
00000010: e2ce 143e 7512 3abd 4d74 8a3e b6dc 4dbe
00000020: a9e9 7bbe 17f5 06be 7033 edbd a9fe 98be
00000030: be7b 98bd 9b7f 503e 78fa d7be 7f45 65be
00000040: 4d2f 59be dfe4 863e 03e0 0dbf d263 99be
00000050: 8855 ae3e 41d2 cbbd 5f7f 143e c391 09bd
00000060: 7436 333f f606 86bd 7b57 023f 004f 88be
00000070: ef48 873e c160 163f 5e06 3cbe 12c0 a1be
00000080: e032 b6bd 26ae 0abe bd93 123f 629b e03a
00000090: 269b e53e 5432 38be a664 db3e 6d88 ca3e
000000a0: d430 df3d dc9a 99be f64e 0abe d1e5 b93d
000000b0: 11d6 a33e 7420 4e3e 717c 0cbc 8a8d 373e
000000c0: 59a1 ae3e 63b7 ab3d 3988 7e3a 7cda 0c3e
000000d0: 9871 df3d b6ae 053f 86e3 9fbe a00d 8d3c
000000e0: f83c a5be 2b72 be3e a294 f6be ca87 d1be
000000f0: f934 f93d c227 0b3e 0261 3c3e 6a69 d43e
00000100: f972 10bf ab37 11be fa63 bfbd bd6d 133f
00000110: 21c7 0dbf c1b7 05bf 17e2 8b3e d9b7 813e
00000120: 774a 583e 60bf 673e 2223 493d a17a 8fbe
00000130: 7260 ea3e 6f78 cf3e d0b3 3c3e 6723 683e
00000140: 3a3e 733d 157e 353d 12f3 8bbd 00e3 87be
00000150: 11af 103f c93e 743e da14 f03d d33c 893d
00000160: d570 c63e 4722 f53e 0c11 9cbd 337e 84be
00000170: 2b77 f03d 67f7 403e 9d5d 84be a03f b8bd
00000180: 8bcf 9b3e 101d 0abe 0474 66be 8b7e 033e

bias f4 [10]
-0.13364597 0.52971315 0.29115543 0.31051868 -0.02870229 0.51161045 0.34811568 0.54403204
0.19738682 -0.30687168
00000000: 7dda 08be 489b 073f 5312 953e 4efc 9e3e
00000010: 1121 ebbc e7f8 023f 383c b23e af45 0b3f
00000020: c51f 4a3e 491e 9dbe

weight f4 [10, 10]
0.034404468 -0.37275144 -0.20687833 -0.12762782 -0.087602764 -0.16535927 -0.017296318 -0.39464375
0.11928387 -0.21195921 0.025907272 0.65726304 -0.72057295 -0.5418845 -0.16527104 0.84545815
0.7812748 -0.047564138 -0.38297367 -0.23590717 -0.3022966 -0.109753065 -0.10111752 -0.16429861
0.21466601 0.33008423 -0.4073668 0.062425867 0.03746074 0.27190673 0.15145037 0.76308775
-0.40099013 -0.38296035 0.18182297 0.8232683 0.70982057 0.20023465 -0.14055355 0.061875235
-0.2512652 -0.08129254 0.4993186 0.4192957 0.24607801 -0.015714508 -0.47360104 0.3722773
0.4717743 -0.27307126 -0.2517468 0.2985437 -0.35443607 -0.6184021 -0.32491243 0.47445005
0.24884903 0.50136817 -0.56313175 -0.2533032 -0.0063008 -0.09552881 0.20136255 -0.23592342
-0.066985406 -0.076820515 0.12907389 -0.05416904 -0.15924725 0.14612317 0.08898151 -0.06607388
0.02907615 -0.019580113 0.034119476 -0.19650955 -0.21906291 -0.20073596 -0.112124376 -0.19017772
-0.16977158 0.071541235 -0.1307311 -0.19620861 0.18377458 -0.15145446 0.27794743 -0.27348036
0.19757582 -0.033361007 0.068203814 0.2380042 0.2974825 -0.30204332 0.23148653 -0.24557415
-0.21088028 -0.3044762 -0.23876843 0.14177991
00000000: b3eb 0c3d 47d9 bebe ead7 53be deb0 02be
00000010: 1469 b3bd f153 29be 02b1 8dbc bf0e cabe
00000020: 1a4b f43d d60b 59be 7d3b d43c 6442 283f
00000030: 7877 38bf f1b8 0abf d03c 29be f26f 583f
00000040: a001 483f 9dd2 42bd 2015 c4be a691 71be
00000050: 9fc6 9abe 37c6 e0bd b416 cfbd e53d 28be
00000060: 68d1 5b3e cd00 a93e 6292 d0be 44b2 7f3d
00000070: 6f70 193d 5c37 8b3e ce15 1b3e b859 433f
00000080: 944e cdbe 6113 c4be cd2f 3a3e b6c1 523f
00000090: cdb6 353f 500a 4d3e 45ed 0fbe e370 7d3d
000000a0: d5a5 80be b47c a6bd b0a6 ff3e edad d63e
000000b0: e0fb 7b3e b6bb 80bc d67b f2be 219b be3e
000000c0: 678c f13e ffcf 8bbe f5e4 80be b8da 983e
000000d0: a578 b5be 9a4f 1ebf ec5a a6be 1eeb f23e
000000e0: 48d2 7e3e aa59 003f 6729 10bf f5b0 81be
000000f0: f176 cebb 9ca4 c3bd fc31 4e3e e995 71be
00000100: a52f 89bd 1354 9dbd f22b 043e 5be0 5dbd
00000110: b611 23be 50a1 153e f03b b63d be51 87bd
00000120: 1b31 ee3c 7966 a0bc ddc0 0b3d cd39 49be
00000130: 0752 60be ba8d 4dbe 77a1 e5bd f3bd 42be
00000140: 9ad8 2dbe 3684 923d 60de 05be e9ea 48be
00000150: 672f 3c3e e116 1bbe 204f 8e3e 9e05 8cbe
00000160: 5151 4a3e 8da5 08bd 71ae 8b3d 5fb7 733e
00000170: a04f 983e 6ca5 9abe ce0a 6d3e ca77 7bbe
00000180: 00f1 57be 4ee4 9bbe b67f 74be c12e 113e

bias f4 [10]
-0.054440487 0.62622905 -0.27387574 0.16202877 0.18412305 0.3243454 -0.293191 -0.24280535
-0.19700286 -0.12779422
00000000: fdfc 5ebd 8c50 203f 7139 8cbe dfea 253e
00000010: c18a 3c3e 9a10 a63e 211d 96be f7a1 78be
00000020: 1ebb 49be 7ddc 02be

weight f4 [2, 10]
-0.1046067 -0.7283874 0.12784764 -0.7705085 0.4299644 -0.5652579 -0.0530549 -0.03948556
-0.09640078 -0.23756737 -0.011599019 0.67952126 0.015998391 0.3884556 -0.3905551 0.54255724
-0.14981501 -0.019764453 0.05156563 0.03705089
00000000: 0a3c d6bd 9977 3abf 7eea 023e 0c40 45bf
00000010: 4b24 dc3e beb4 10bf 1850 59bd 9cbb 21bd
00000020: c66d c5bd dc44 73be d009 3ebc 1bf5 2d3f
00000030: 0f0f 833c a7e3 c63e d7f6 c7be 08e5 0a3f
00000040: 1b69 19be 10e9 a1bc 7b36 533d adc2 173d

bias f4 [2]
0.027686767 0.33612823
00000000: 5ccf e23c 0019 ac3e
