LORE/LORE_UCI/models/HELOC_retrained.pt (torch, 7049 bytes, 10 tensors)

weight f4 [10, 22]
00000000: 2224 67bd bbe3 45be 483c 31be 0782 8fbd
00000010: a93f c23c 824f 5f3d e279 85be a8ca 41be
00000020: 2234 823c e97a 113d c717 7d3e 4335 5abe
00000030: 5052 53be 021e 6e3e d1fc 7ebe 9cc0 48be
00000040: bca7 b3bd 0402 e8bc 92da a2be 00fc 9bbe
00000050: 708e 0abe 6e65 3dbe 662c 8dbd ea66 6cbd
00000060: e8da 11be 0d75 8f3d 758d 3cbe 34a9 543d
00000070: 1d44 bb3d 916a 1abe 5afa 483e 45d2 f3bd
00000080: 915a 23be 86b3 83bd 7c74 4dbd 7d6d ff3d
00000090: e660 35be 5a61 e23d f982 4a3e fd45 56ba
000000a0: 3f0e 9dbb 8b36 58be 6263 58be 4e60 b4bd
000000b0: b3ea 34be ded6 2bbe e611 f9be a5d4 c8be
000000c0: c939 2a3f 5331 403f 2bf9 92be bea3 cabd
000000d0: 1fdb b7be 6295 a8bd 5ec8 24be b108 903e
000000e0: 7355 983e eb0b a0be 88eb 633f 6d33 853f
000000f0: 0e12 693f 65dd 593e c8e3 343f 39bd fcbd
00000100: 9e31 1e3f 16bc e73e 7ed3 28be df0f e1bd
00000110: e8d8 38be a2a2 1bbe 6a7a 1fbd a8f4 67be
00000120: 9dc4 47be f512 68be 2ec9 90be 2393 5f3d
00000130: af32 f0bc 3214 bdbe a10b afbd 0b39 26be
00000140: f310 78be 4011 8cbd 657d 9ebb 3e2a 2abe
00000150: 53dd 9cbe d4ad 7dbe 7687 083d 6862 dbbd
00000160: 9ac5 ea3b abc0 46bd 213b 71be f772 3fbe
00000170: 656b b4be 0a33 81be 72f4 51bd 0037 8cbe
00000180: b465 5ebe c58c aabe a92e ab3d d8e4 7bbd
00000190: a43c b5be 9e68 e8b8 5c43 01be 324b 64be
000001a0: d6b5 a03b 9234 d2bd c42f 3dbd ea38 27bc
000001b0: d032 c4bc 95bf 92bd 9b73 15be 39b6 34be
000001c0: 2027 05bf 5b78 d0be 26b7 703f 3611 463f
000001d0: fb95 f9bc cf6a f7bd a21e 06bf 0a9a 0dbe
000001e0: 4a7b 9cbe 0154 d23e 27db cb3e faed b9bd
000001f0: faf2 893f ad38 663f 0e54 5e3f 6ed7 cebd
00000200: b4ea 153f dd68 bfbd 4726 ba3e f102 143f
00000210: fdf5 0e3f 13c5 cc3e 3c8d 153f bf3f ce3e
00000220: 643f 4dbe f006 15be a9cb 383f 08bb 363f
00000230: e9da 383f e216 023f b8bc ee3e f4c5 2f3d
00000240: 70b7 063f 1032 523e 3e40 b7be 8c94 25bf
00000250: e20e 0cbf 54c1 d53e 8df5 3a3d e028 c43e
00000260: a60f ea3d 10a0 8f3e b4d8 e3be a1d6 2a3d
00000270: dc53 1dbf faf1 0ebf 01dd 553f d98b 6d3f
00000280: 027e 403d 3ec3 55be ba88 01bf 9c6d 4bbe
00000290: a0f3 38be e3a6 1d3f 626c 123e b527 34bd
000002a0: d8ad a93f 4638 6e3f b508 a23f f75c b73d
000002b0: 12b6 413f 830d 013e efae 963e ce57 3e3f
000002c0: 8f16 58be ca46 3e3e 7e59 aebd a326 ba3d
000002d0: 6218 f33d a5ee 273c 9c6f 4f3b 22f6 0b3e
000002e0: e0b3 e3bd 2aba 8c3d ecac 0ebe bbff 703d
000002f0: 6122 2f3d 31c4 c7bd 8513 ce3d ffb0 623d
00000300: c3ed 463e c679 33be c70d 1cbe ebee e3bd
00000310: 174c f83b 54ef 54be bcba 81be b6cd 543d
00000320: 4649 6b3c 5532 afbd d4b2 31be 257a 57be
00000330: 6494 6cbe 1410 93be 45ff 59be ac98 6dbe
00000340: 0f3a 9ebe e3c3 7c3c 7e6f c6bd 15c5 f6bd
00000350: dd8d dbbd bb0c 9cbc 5107 1bbe 7804 32be
00000360: f300 aebc da36 f8bd eec3 47bd 8734 c4be
-0.056430943 -0.19325154 -0.17308152 -0.070072226 0.023711996 0.054519184 -0.26069552 -0.18924963
0.015894 0.035517607 0.24716102 -0.2130938 -0.20636868 0.23253635 -0.2490113 -0.19604725
-0.08772227 -0.028321274 -0.3180738 -0.30465698 -0.13530898 -0.18495724 -0.06893234 -0.057715334
-0.14243662 0.070047475 -0.18413337 0.051919177 0.09143851 -0.15079714 0.19626752 -0.1190534
-0.15952517 -0.06430726 -0.050159916 0.12472055 -0.17712745 0.110537246 0.19776525 -0.0008173881
-0.004792958 -0.21114556 -0.21131662 -0.08807431 -0.17667656 -0.16781184 -0.48646468 -0.39224735
0.66494423 0.7507526 -0.28705725 -0.098945126 -0.35909364 -0.082316175 -0.16092059 0.2813163
0.29752693 -0.31259093 0.8903127 1.0406319 0.91043174 0.21275862 0.70660067 -0.12340779
0.6179446 0.45260686 -0.16486928 -0.10989355 -0.18051493 -0.15198758 -0.038935103 -0.22651923
-0.19508596 -0.22663482 -0.28278488 0.05458368 -0.029321043 -0.3692947 -0.0854714 -0.16232698
-0.24225216 -0.06839228 -0.0048367255 -0.16617677 -0.30637607 -0.24773341 0.03333231 -0.10712129
0.007164669 -0.048523586 -0.23557712 -0.186962 -0.35238186 -0.25234252 -0.05125851 -0.27385712
-0.21718484 -0.33310524 0.08358509 -0.06149754 -0.35397828 -0.000110821085 -0.12623352 -0.2229431
0.004904489 -0.10263933 -0.04618813 -0.01020644 -0.02395001 -0.071654476 -0.14594881 -0.17647637
-0.52012825 -0.40716824 0.9402946 0.7737001 -0.030467024 -0.12080919 -0.5239049 -0.13828292
-0.30562812 0.41079715 0.39815637 -0.090785936 1.0777276 0.8993023 0.8684701 -0.10099684
0.58561254 -0.09346173 0.36357328 0.5781699 0.558441 0.39994106 0.5841863 0.4028301
-0.20043713 -0.14553428 0.7218576 0.7137914 0.7220903 0.50816166 0.46628356 0.042913392
0.52623653 0.2052691 -0.357912 -0.6467979 -0.5471021 0.4174906 0.04564433 0.38312435
0.11428766 0.28051805 -0.4450127 0.041708592 -0.61456084 -0.55837977 0.8354035 0.92791516
0.04699517 -0.2087526 -0.50599253 -0.19866031 -0.18061686 0.61582774 0.14299157 -0.04398318
1.3256178 0.93054616 1.2658907 0.089532785 0.7566844 0.1260281 0.2943034 0.7435273
-0.21102355 0.18581691 -0.08513163 0.090894006 0.11869885 0.010249768 0.0031652218 0.13668111
-0.11118293 0.068714455 -0.13933152 0.058837634 0.042757396 -0.097542174 0.10062317 0.055344578
0.19426636 -0.17526922 -0.1523963 -0.11129554 0.00757743 -0.20794421 -0.2533778 0.051953994
0.0143607315 -0.08554522 -0.17353374 -0.21042688 -0.23103482 -0.28723204 -0.21288784 -0.23202771
-0.3090367 0.015427562 -0.09689234 -0.12049309 -0.10720418 -0.01904904 -0.1513951 -0.17384517
-0.021240687 -0.12119837 -0.048770837 -0.38321325

bias f4 [10]
00000000: f22d c2be b6bb 43be 84ac ba3e 2ffe 8cbe
00000010: dfb2 f0bd 3512 5f3e 1a1a 253e 54be d23d
00000020: a581 c7bd c6e7 8abe
-0.37925678 -0.19114575 0.36459744 -0.27537677 -0.11752867 0.21784289 0.16123238 0.102902085
-0.097415246 -0.27129954

weight f4 [10, 10]
00000000: f5e4 343e 5e3f 98be 7f55 3c3f ef40 ffbd
00000010: a5d3 143e eff8 1b3f ae01 b3bd 4ab3 803f
00000020: 44c5 1f3e 18af 083e 41eb 843e 5f2b 84be
00000030: 28dd 3c3d e347 1bbc 861b eb3d 1825 003f
00000040: a878 a03e 856d 3c3e d257 85bd 8686 67be
00000050: 35b8 00be 84c7 913e 6260 2dbe 3f52 b3be
00000060: 329d 12be b435 62be f0ef f2be e1c9 d5be
00000070: 277b 783d 67cf 133e 30af 413c 4ce9 4b3d
00000080: 9da8 563f f753 efbd 3ece a0be ae43 833e
00000090: b04c 503d 8ab0 1b3f 00da 6b3c d759 013d
000000a0: 6d54 e43e 3147 96be f744 8ebe c03b bb3b
000000b0: 06f3 cf3d 4559 3abf 589d 513f 6b52 e1be
000000c0: ffd1 68be 1873 f7bd 6362 1cbe cf18 4a3e
000000d0: a237 86bd e814 103e ea42 933e e9cc 9fbe
000000e0: 21ce 923d e6c1 82be c5f7 853d 2bdb 9f3e
000000f0: 9c06 b73d f310 fd3d ddc3 153f b3c0 cb3d
00000100: 0214 ae3d c806 4c3f df8c e33d 9e0a 453f
00000110: 61f8 583d 66b3 b0be afc1 533e 9339 9abe
00000120: 99dd bf3e fd78 c4bd 251a 423e f651 043f
00000130: b3ad 1ebe c7d5 2b3e 77f2 1abd b516 e2bd
00000140: 32cd aa3d 3eb6 47be 72b3 09be 1a54 443d
00000150: 1d9b 7fbe 55af dbbe 09de 2e3f a676 23bf
00000160: 0dcb 9abe 9a8b 9f3d 9226 913e 4263 8b3e
00000170: 31f7 d63e bac8 31bd e53e 5c3e 2de1 2b3f
00000180: c88a 94bd 480e 3f3f 2788 253e 6d96 43be
0.17665465 -0.29735845 0.73567957 -0.12463557 0.14533861 0.6092672 -0.08740555 1.0054715
0.15602595 0.13348043 0.25960734 -0.2581434 0.04610935 -0.009477588 0.11479859 0.500566
0.31342053 0.18401153 -0.06510891 -0.2260991 -0.1257027 0.2847253 -0.16931298 -0.35023686
-0.14317778 -0.22090799 -0.47448683 -0.41755584 0.060664322 0.14434586 0.011821553 0.049783036
0.83851033 -0.11685937 -0.3140735 0.25637573 0.050854385 0.6081625 0.014395237 0.03157982
0.44595662 -0.2935119 -0.2778699 0.00571391 0.10153775 -0.72792464 0.8188071 -0.44008192
-0.22736357 -0.12082499 -0.15271907 0.19736026 -0.0655358 0.14070475 0.2876199 -0.31211022
0.07168222 -0.25538558 0.06541399 0.312219 0.089368075 0.123567484 0.5850199 0.09948864
0.0849991 0.7969785 0.111108534 0.76969326 0.052971248 -0.3451187 0.20679353 -0.3012205
0.37473753 -0.09593389 0.18955286 0.5168756 -0.15495948 0.16780768 -0.03782889 -0.11039487
0.08339919 -0.19503114 -0.13447359 0.047931768 -0.24961515 -0.42907205 0.6830755 -0.6385292
-0.3023304 0.07790299 0.2834974 0.27224165 0.41985467 -0.04340432 0.21508367 0.67140466
-0.07253033 0.74631166 0.16165219 -0.19100352

bias f4 [10]
00000000: 6a1c 2d3e 7c19 2a3f 8bf9 a43d 2c70 933e
00000010: e4c3 903e 66b5 d0be 068b 043f 6718 2d3f
00000020: 7549 9a3e b727 1f3e
0.1690537 0.66445136 0.08055409 0.28796518 0.28274453 -0.40763396 0.5177463 0.6761536
0.30134168 0.15542494

weight f4 [10, 10]
00000000: 5188 87bd 157a afbe abdf 863e 09f8 6cbe
00000010: 555f 00be 55ac 133e 72c5 3fbe 45c5 183d
00000020: 8319 de3c fb21 cf3c d591 09bf a973 c13e
00000030: 5731 d63e 3449 c4be 579e 183f ca50 7abb
00000040: 199a af3c cf84 a63d 066c 083f d657 59be
00000050: 7d2a 733d 7a08 ff3e acac 893d fd2f a53e
00000060: ad42 583f b7ac 473d 9251 183f b51f 0ebe
00000070: 65c3 563f 0d9a d63d f819 39be 4921 f9be
00000080: 551c 9c3d e54f 06bd c001 b8be bac0 0abe
00000090: 8d36 85bd e89d 58be 60bd 08bf 7006 18be
000000a0: 3945 d63d 5a62 80bc 1b3d 9f3d 69a5 5c3d
000000b0: e2b6 863e 7306 64be 6422 e3be 2f58 d4be
000000c0: e492 c1be cd3f f5bd d0cc 32be 52cc f6bd
000000d0: c91f 80bb 6113 94be a687 7abe 3c0c 073d
000000e0: 4f61 573d 00cd 30bd de12 cbbc e17e 66be
000000f0: ed6b 0c3e b821 0f3f 81c4 1cbd bf18 5c3e
00000100: 5553 ce3e 8045 e33d 1dd7 313e df47 cf3e
00000110: c439 7e3e 55fe d9bc 7298 f9be 2962 cdbd
00000120: 3f0d 82bc 99e0 c3be 057e be3d d8ba f7bc
00000130: 6733 efbd dc50 7fbe ea54 d4be 5262 64be
00000140: c2b0 513f fe5d 0b3f be61 8e3c 5a6e 0a3f
00000150: ed3e 34bf be08 1cbe 52cf 433f ace8 ea3e
00000160: 1d8b fcbe 8ab2 4c3f f4b4 263f 0d3a 053e
00000170: c445 8d3e 14a5 2b3f 820d c6be f6fa 5b3d
00000180: 9c77 623f 93bd 2e3f bd7a 2cbf 3fbc a63e
-0.06617797 -0.3427283 0.2634252 -0.23141493 -0.12536366 0.14421208 -0.18727663 0.037297506
0.027111774 0.025284758 -0.5373815 0.37783554 0.41834518 -0.383371 0.5961661 -0.0038195127
0.021435784 0.081308 0.5328983 -0.21224913 0.05936669 0.49811155 0.06722388 0.32263175
0.8447674 0.048748698 0.59499466 -0.13879283 0.838919 0.104786016 -0.18076313 -0.48658207
0.076225914 -0.032791037 -0.35938835 -0.13550082 -0.06504545 -0.21153986 -0.53413963 -0.14846206
0.10462422 -0.015671898 0.07775327 0.053868685 0.26311404 -0.22268085 -0.44362175 -0.4147353
-0.3780738 -0.1197506 -0.17460942 -0.1205069 -0.003910039 -0.28921035 -0.24465808 0.032970652
0.052583035 -0.043164253 -0.02478927 -0.22509338 0.13713045 0.55910826 -0.03827334 0.21493815
0.40297952 0.110972404 0.17367215 0.4048452 0.24826723 -0.026610533 -0.4874912 -0.10028488
-0.015875457 -0.38257292 0.0930138 -0.030240461 -0.11679726 -0.24933189 -0.41471034 -0.22303131
0.81910336 0.54440296 0.017380591 0.54074633 -0.7040852 -0.1523771 0.7648822 0.4588064
-0.49324885 0.7995993 0.6511986 0.13010426 0.2759229 0.67048764 -0.3868218 0.053706132
0.8846376 0.6825802 -0.67374784 0.32565495

bias f4 [10]
00000000: 592f b4be 37ce 923e 42d9 e33e d97b 89bd
00000010: 1fe7 46be fa18 7ebd e68e 873e eef1 17bd
00000020: 0e2c 7c3e 2f58 303e
-0.35192373 0.28672954 0.44501692 -0.06713075 -0.19424103 -0.06203554 0.2647621 -0.037095957
0.2462618 0.1722114

weight f4 [10, 10]
00000000: 34e4 a23d 4924 4cbe 3b3b a7bd c442 60be
00000010: 81bb a43c 8601 f2bc feea 5f3e 36bc 1dbe
00000020: 231f 59be 1f6a 87be 17e2 783e ec81 08bf
00000030: bcf8 3cbf 6204 573e 2301 393e b88d d43e
00000040: 801b 99bc 7b4c 083e 1358 003f 98e5 5f3f
00000050: a42a 533e 4efe c9bd d6ec 2cbd 3292 febc
00000060: dfec 2abe ddfd 19bd 813f 97be 216a 803e
00000070: 6f9f 83be b439 753e 683e b33d 2870 0bbf
00000080: 5f1c 9fbe 3eaf 883e 88e6 e3bd 0bce 963d
00000090: 8e02 c53d 363a 3e3e f0d1 bebe 2162 1d3d
000000a0: bc89 eebd d783 a83e d535 233f 02a2 163e
000000b0: 367f 923d e266 633d d896 9d3e 4a95 8cbd
000000c0: d968 33bd 216c 6abd b830 b3bd f2f2 e4bd
000000d0: 4422 4d3e ea5c 1b3d 9059 bdbc fef6 69be
000000e0: 5bf4 073f e592 b1be 961d 0c3f 6821 243f
000000f0: aa75 b9bd e3d8 61bd 1f91 95be 2f18 06be
00000100: 9d56 82be 0e79 813d b68d d53d 2297 87bb
00000110: a145 a63c 9b4c a4bd 414c a0be a4d1 34be
00000120: aec8 0dbe 5748 473e 35b5 3cbd 61a1 d13e
00000130: ca7d b63d 7a1d a43e 27fb a6be 5260 24be
00000140: 4142 a13e 4615 99be 75a0 5dbe a2ab a8be
00000150: b783 4fbe 1301 02bd 55c6 de3d 9b08 c0be
00000160: c950 c3be 60a6 bbbd f746 843e ee4b dfbe
00000170: 3bb1 793c 9f90 4ebe 6ac2 8bbc d41f acbd
00000180: dd9f 163e c147 073d 9b36 e7be 2aec a0be
0.079536825 -0.19935717 -0.08165594 -0.21900469 0.02010894 -0.029541742 0.21866986 -0.15403828
-0.21203284 -0.2644815 0.24304996 -0.53323245 -0.7381704 0.20997766 0.1806684 0.41514373
-0.01868987 0.13310425 0.5013439 0.8745971 0.20621735 -0.09862958 -0.04221805 -0.03107557
-0.16691922 -0.03759562 -0.29540637 0.2508097 -0.25707576 0.23947793 0.087521374 -0.5446801
-0.31076333 0.266962 -0.11127955 0.07363518 0.09619628 0.18576893 -0.37269545 0.03842366
-0.116473645 0.32913086 0.63754016 0.14710239 0.0715317 0.05551804 0.30779147 -0.06864412
-0.043801162 -0.057232026 -0.08749527 -0.11179151 0.20032603 0.037930407 -0.023113996 -0.22848126
0.5310723 -0.34682384 0.54732645 0.64113474 -0.09055646 -0.05513848 -0.2921228 -0.13095163
-0.25456706 0.063219175 0.1042742 -0.0041378895 0.020296874 -0.08022424 -0.31308177 -0.17658097
-0.13846084 0.19461189 -0.04607125 0.40943435 0.08910711 0.3205374 -0.3261349 -0.16052368
0.3149586 -0.29899043 -0.21643241 -0.32943445 -0.20265089 -0.031739306 0.108776726 -0.37506565
-0.38147572 -0.09162593 0.25835392 -0.43612617 0.015240009 -0.20172356 -0.017060477 -0.08404508
0.1470942 0.033027414 -0.45158848 -0.3143018

bias f4 [10]
00000000: ecea 06be 8408 cc3c fd6f 8ebe 71fb 653d
00000010: 2879 ab3e ab3f 453e aa43 9ebe 373f 8abe
00000020: 319c 9ebc 57e0 b43c
-0.13175553 0.024906404 -0.27819815 0.056147996 0.33490872 0.19262569 -0.30911 -0.27001354
-0.019361587 0.02207963

weight f4 [2, 10]
00000000: 67e9 893e bf70 2a3f a7a3 913d b659 71bc
00000010: a3f0 cebe c092 413f 34a2 003e 2999 80bc
00000020: bb75 593e 142b e83d fd3e 343e df23 00bf
00000030: 6ccf 223d 8dcd cbbc b483 d43e 07ed c7be
00000040: a182 06be f778 003e 01a0 babd 50d4 8a3d
0.26935884 0.66578287 0.07111292 -0.014730861 -0.40417966 0.7561455 0.12561876 -0.015698032
0.21236317 0.113363415 0.17602153 -0.50054735 0.039748594 -0.024878288 0.41506732 -0.39048025
-0.13135768 0.12546144 -0.091125496 0.06778777

bias f4 [2]
00000000: 4a99 09bf 7a24 1e3f
-0.53749526 0.6177441
